legged_gym/policy/booster_t1/booster_t1.onnx (onnx, 253878 bytes, 8 tensors)

0.weight f4 [256, 47]
-0.07404119 0.31187084 0.14276515 -0.016503781 -0.04406224 -0.00023141966 0.10194468 -0.31227598
-0.06402434 0.045922767 0.12549093 0.14266296 0.13563918 0.51352537 0.046172142 0.1729707
0.024138184 -0.548805 -0.032095235 0.27155676 0.28888038 0.022422548 0.07479797 -0.3925224
-0.0222265 0.0026040028 -0.13333987 -0.016036654 -0.034993317 0.08276157 0.22595508 0.29613334
-0.016755028 0.2052837 0.1615438 0.10482004 -0.10874876 -0.24633767 -0.05958519 0.09840685
-0.12779681 0.045378193 0.14371581 -0.109158516 0.22076732 -0.028009286 -0.15972391 -0.12246312
-0.28124523 0.13960116 -0.057230692 -0.09211205 0.10504419 0.19739461 -0.015409246 0.036107752
-0.20736282 0.036043767 -0.9526547 -0.29220334 -0.21663256 -0.03992169 -0.103377074 -0.052068207
-0.0431643 -0.24734244 -0.144881 -0.12363009 0.30930677 -0.19033666 -0.3765378 0.13694929
-0.24929155 -0.026331004 0.08067335 -0.010238919 -0.29176727 -0.23837279 0.1487439 -0.03601573
-0.07669466 0.08547929 0.07773274 0.052968714 0.058726713 0.062329188 -0.13118483 0.15811445
0.043745477 0.04438253 -0.1603599 0.11689172 0.0069613196 -0.03344541 0.13153492 0.22860171
0.035591885 0.119948596 0.15415081 0.06058225 -0.15411618 -0.18293075 -4.439881e-05 -0.20647307
-0.06450072 0.0403758 0.21737573 -0.20856139 -0.049950715 0.14353073 0.24592012 0.010468128
-0.26241335 -0.45119777 -0.080251336 -0.093757026 -0.035769742 0.50614876 0.10317559 -0.28100762
0.20611006 0.013259008 -0.10417463 0.04901542 0.14805709 0.31326246 -0.16629659 -0.3356263
0.23200518 0.1812764 0.08284922 -0.18069416 -0.24965927 0.22979794 -0.16854466 -0.18299015
0.2575822 0.104360804 0.049875278 -0.12054952 0.22638988 -0.25945732 0.7676365 0.04862982
-0.08899213 -0.113862395 0.064372495 -0.068687156 -0.11995946 -0.031030795 -0.21474355 -0.15627089
-0.5011468 0.02634924 -0.027601227 0.31910834 -0.2828096 -0.027316587 0.4657111 -0.29814783
-0.27406186 0.1747649 0.23306699 0.060651865 -0.024462612 -0.22787632 0.0766181 0.05240735
-0.085528634 -0.0007226724 -0.32678473 -0.2188878 -0.008793056 -0.21890414 -0.06992838 -0.059432812
0.021170627 0.05441614 0.23826937 0.038295887 0.2158885 -0.10115921 -0.22459722 0.12234624
-0.059376284 0.22263823 -0.26905546 -0.018178143 0.095539205 -0.14449725 -0.0032517167 0.035113785
-0.028712807 0.023718093 -0.021142857 -0.09905157 0.10306451 -0.26391906 -0.05849764 -0.07770628
0.33179426 0.055807214 0.14171848 -0.087601565 0.10248666 0.6417648 0.099365555 -0.006096576
-0.3739869 0.017282845 -0.029062752 0.48272175 -0.03399766 -0.13018031 0.15340045 -0.10431557
0.15697052 -0.035456624 -0.061879892 0.2103754 0.12767416 -0.028276065 0.057686154 -0.18270136
-0.037382036 0.030171037 0.10768935 -0.126511 -0.18982282 -0.109111495 0.16477214 -0.076517925
-0.008004519 0.11041872 0.06267456 0.052615464 0.1610585 0.102666214 0.0002118184 0.067531504
0.029875377 -0.0033500423 -0.045482047 0.074676365 -0.22514406 0.14197947 -0.40880457 0.50389874
-0.31239867 -0.14366631 0.10227337 0.21853149 0.516944 0.30697757 -0.4152897 -0.11716509
00000000: e8a2 97bd 89ad 9f3e 0731 123e f032 87bc
00000010: 9b7a 34bd 3ea9 72b9 5fc8 d03d a3e2 9fbe
00000020: 311f 83bd 8319 3c3d b280 003e 3d16 123e
00000030: ffe4 0a3e 6676 033f 001f 3d3d 3b1f 313e
00000040: 71bd c53c 7c7e 0cbf 4b76 03bd 7d09 8b3e
00000050: 21e8 933e 7eaf b73c ae2f 993d b2f8 c8be
00000060: 5914 b6bc eba7 2a3b 3f8a 08be 4d5f 83bc
00000070: 2755 0fbd e67e a93d c560 673e ca9e 973e
00000080: d741 89bc e435 523e bd6b 253e e4ab d63d
00000090: abb7 debd f13f 7cbe 9a0f 74bd 8889 c93d
000000a0: 2bdd 02be 7cde 393d 3d2a 133e 808e dfbd
000000b0: d410 623e bb73 e5bc aa8e 23be f2cd fabd
000000c0: 60ff 8fbe 9bf3 0e3e bb6a 6abd 3ea5 bcbd
000000d0: 6921 d73d d021 4a3e 1077 7cbc b9e5 133d
000000e0: eb56 54be a1a2 133d 2ee1 73bf ad9b 95be
000000f0: edd4 5dbe ed84 23bd 5cb7 d3bd 7945 55bd
00000100: 0dcd 30bd 5647 7dbe af5b 14be c631 fdbd
00000110: 755d 9e3e 9de7 42be 90c9 c0be 6f3c 0c3e
00000120: 4946 7fbe 1eb4 d7bc 1238 a53d 24c1 27bc
00000130: 8562 95be ff17 74be 5250 183e 3b85 13bd
00000140: 1712 9dbd c40f af3d 5832 9f3d b9f5 583d
00000150: 6c8b 703d e44c 7f3d 5155 06be c1e8 213e
00000160: 752e 333d 75ca 353d 6335 24be ed64 ef3d
00000170: c81b e43b 0efe 08bd 17b1 063e 9116 6a3e
00000180: ccc8 113d 9ca7 f53d b6d9 1d3e 1825 783d
00000190: a2d0 1dbe 3352 3bbe dc38 3ab8 ad6d 53be
000001a0: f418 84bd 1861 253d be97 5e3e 1e91 55be
000001b0: 1f99 4cbd b8f9 123e 7cd2 7b3e 8382 2b3c
000001c0: 0b5b 86be 6503 e7be d05a a4bd af03 c0bd
000001d0: 4b83 12bd f792 013f b94d d33d 3be0 8fbe
000001e0: 840e 533e 4f3c 593c 8259 d5bd 65c4 483d
000001f0: 479c 173e f063 a03e a749 2abe 36d7 abbe
00000200: c492 6d3e 85a0 393e daac a93d e407 39be
00000210: aea6 7fbe 2750 6b3e f996 2cbe c561 3bbe
00000220: d0e1 833e 1ebb d53d 054a 4c3d abe2 f6bd
00000230: c0d2 673e 97d7 84be d383 443f 1030 473d
00000240: 8141 b6bd b030 e9bd bad5 833d daab 8cbd
00000250: 4ead f5bd 4b34 febc bce5 5bbe 7a05 20be
00000260: 284b 00bf 5dda d73c f81b e2bc 2b62 a33e
00000270: 6bcc 90be 09c7 dfbc af71 ee3e d5a6 98be
00000280: d651 8cbe 92f5 323e 1da9 6e3e 176e 783d
00000290: d165 c8bc 6958 69be f3e9 9c3d 17a9 563d
000002a0: a329 afbd b971 3dba 5450 a7be 2024 60be
000002b0: c010 10bc 6828 60be 9c36 8fbd d26f 73bd
000002c0: 066e ad3c 75e3 5e3d e3fc 733e 26dc 1c3d
000002d0: e011 5d3e 8f2c cfbd d0fc 65be aa90 fa3d
000002e0: 8c34 73bd 47fb 633e a3c1 89be 54ea 94bc
000002f0: 0faa c33d 16f7 13be c11a 55bb 79d3 0f3d
00000300: 1f37 ebbc 724c c23c c933 adbc 8ddb cabd
00000310: 7c13 d33d 6620 87be 399b 6fbd 7824 9fbd
00000320: f0e0 a93e 1b96 643d a61e 113e 7368 b3bd
00000330: 87e4 d13d b34a 243f 2b80 cb3d c9c5 c7bb
00000340: 367b bfbe c194 8d3c 0215 eebc 4e27 f73e
00000350: 2141 0bbd fd4d 05be 0215 1d3e 67a3 d5bd
00000360: e1bc 203e f73a 11bd c575 7dbd a66c 573e
00000370: 04bd 023e 35a3 e7bc 5148 6c3d 1116 3bbe
00000380: e81d 19bd 4029 f73c 3c8c dc3d 198c 01be
00000390: ea60 42be d975 dfbd 07ba 283e 6eb5 9cbd
000003a0: 6325 03bc 3623 e23d 855b 803d 5083 573d
000003b0: 85ec 243e aa42 d23d 921b 5e39 f54d 8a3d
000003c0: 35bd f43c 628c 5bbb 624b 3abd ecef 983d
000003d0: 2a8c 66be 1163 113e d54e d1be 82ff 003f
000003e0: b8f2 9fbe 431d 13be b374 d13d b8c6 5f3e
000003f0: 7156 043f 2a2c 9d3e daa0 d4be 40f4 efbd

0.bias f4 [256]
-0.13724571 0.045546904 -0.060028855 -0.0030782868 -0.13093692 0.079300776 0.025768526 -0.1142136
0.021594841 0.17892462 0.039143894 0.079216525 -0.16121411 -0.11293598 0.0053028385 -0.06642504
-0.10550045 -0.06667663 0.12341804 0.01912142 -0.1285898 0.20968287 -0.12178225 0.047986455
-0.034852207 -0.090701945 0.08205086 0.09937279 -0.062128153 0.056690365 -0.07048801 0.06403186
0.023233544 -0.071729206 0.053895637 -0.11428526 -0.11691921 -0.035865143 0.052964546 -0.23974948
-0.10881979 -0.057602823 0.011330625 -0.072240084 -0.011122485 0.053117204 -0.26524374 0.13448796
-0.16120256 0.12532572 0.14952855 -0.1251008 -0.16628313 -0.0119109955 0.105995335 -0.024761468
-0.048184242 -0.033795923 -0.0150374295 0.18511623 0.01634008 0.05391594 -0.05910275 0.007356455
-0.12809885 -0.2132854 0.16171277 -0.04064421 0.11305064 0.040488895 4.447872e-05 0.015942942
0.026291223 -0.16691968 -0.02200332 -0.077047475 -0.0086077135 -0.005606035 0.0012614145 -0.24467626
-0.23243782 -0.19189082 -0.06452929 -0.029703747 0.028864384 0.096091636 0.21744679 -0.08593497
0.084094286 0.01631806 -0.007849488 -0.08193023 -0.031202817 -0.119107984 0.15770267 -0.10550889
-0.09492871 0.087565206 -0.04944132 0.17718217 -0.21771468 -0.11277234 -0.06554868 -0.19731642
-0.12255924 0.09150254 0.015466167 -0.037339363 -0.07708363 0.22657198 -0.012733816 -0.055256546
-0.04932336 -0.016410163 0.037131805 0.10077027 -0.08994728 0.109535344 -0.015930088 0.06828448
0.14939217 -0.13019904 0.051559597 0.14545545 0.13737506 -0.0077656945 -0.037860073 -0.13869788
0.029485703 0.13494076 0.0066561494 0.06245204 -0.094081156 0.03377359 0.099593125 0.06549871
0.06975861 -0.063518696 0.14481597 -0.049190186 0.045281317 -0.07757266 -0.17652936 -0.16374975
-0.19205745 -0.12259604 -0.1581207 0.12676206 0.03284472 0.11238463 0.11898482 -0.08526799
-0.06930987 0.21567382 -0.008918641 -0.1760995 -0.017963814 -0.09331904 -0.098320454 0.12458411
0.102231905 0.077586286 -0.11939519 -0.13310426 -0.23931497 0.100610115 -0.19363965 0.058851365
-0.022751948 -0.060628463 -0.09212449 0.15924448 -0.008750738 0.12749495 -0.1810155 0.007862887
-0.035453115 -0.059508 0.13919128 0.016566541 0.0301886 -0.14911328 -0.07520577 -0.09807868
-0.17005974 -0.011390461 0.120341256 -0.0011324622 0.08945102 -0.11557164 0.0076339054 -0.19303578
0.011791785 -0.16077828 -0.02103673 -0.24666704 -0.08783536 -0.05526216 -0.030466236 0.0789613
-0.10535832 -0.05623911 -0.08027605 -0.00035428753 -0.058725845 -0.094651654 0.12553795 -0.010468004
-0.05751844 0.07768514 0.04777927 0.07013199 0.012245518 0.10344305 0.13407652 0.080038555
-0.10506417 0.13064079 -0.032861296 -0.036759995 -0.14140436 -0.031258054 -0.12014099 -0.120342284
-0.17425871 0.10915285 0.06547364 -0.06868504 -0.00014837632 0.124276526 0.12249284 0.079211384
0.14983112 -0.14700852 0.22771043 -0.099751584 -0.10864162 0.21803978 -0.06051518 -0.025208931
-0.006097075 -0.16652519 0.023095056 -0.21339387 -0.021590218 -0.079161875 0.006277624 0.029270547
0.12546991 0.17401017 -0.13193996 0.089395136 -0.057698026 0.047632292 -0.18671541 -0.06685569
00000000: 248a 0cbe 648f 3a3d d1e0 75bd 15bd 49bb
00000010: 5414 06be 7268 a23d 8418 d33c d2e8 e9bd
00000020: aae7 b03c 0438 373e 5955 203d 463c a23d
00000030: 5015 25be fb4a e7bd 6fc3 ad3b da09 88bd
00000040: 9f10 d8bd c28d 88bd 99c2 fc3d 86a4 9c3c
00000050: 0bad 03be 1bb7 563e f968 f9bd 728d 443d
00000060: 30c1 0ebd f1c1 b9bd 480a a83d f683 cb3d
00000070: 177a 7ebd 2834 683d 055c 90bd 2323 833d
00000080: 4654 be3c c3e6 92bd acc1 5c3d 640e eabd
00000090: 5773 efbd 54e7 12bd 5af1 583d e380 75be
000000a0: e9dc debd f0f0 6bbd 16a4 393c 9cf2 93bd
000000b0: 153b 36bc 6d91 593d 07ce 87be 36b7 093e
000000c0: 4912 25be 6355 003e 031e 193e 6d1a 00be
000000d0: 2046 2abe 5626 43bc 1514 d93d 90d8 cabc
000000e0: d75c 45bd 986d 0abd 8d5f 76bc 1c8f 3d3e
000000f0: a2db 853c f6d6 5c3d ba15 72bd 6b0e f13b
00000100: 582c 03be 7d67 5abe 0898 253e 8b7a 26bd
00000110: 1887 e73d afd7 253d a98e 3a38 c69a 823c
00000120: b160 d73c feec 2abe 4e40 b4bc 11cb 9dbd
00000130: 5e07 0dbc d4b2 b7bb 0c56 a53a 6a8c 7abe
00000140: 2e04 6ebe 077f 44be ef27 84bd 4655 f3bc
00000150: 0075 ec3c b1cb c43d 5faa 5e3e acfe afbd
00000160: a039 ac3d 74ad 853c 249b 00bc 09cb a7bd
00000170: 0d9d ffbc e3ee f3bd cf7c 213e 0b15 d8bd
00000180: fc69 c2bd 6355 b33d fb82 4abd 3e6f 353e
00000190: 99f0 5ebe 2ff5 e6bd 633e 86bd 510d 4abe
000001a0: 5700 fbbd af65 bb3d ce65 7d3c 29f1 18bd
000001b0: 06de 9dbd 7c02 683e 7fa1 50bc b054 62bd
000001c0: 4b07 4abd 9b6e 86bc 8517 183d a560 ce3d
000001d0: 4836 b8bd 1154 e03d d17f 82bc bcd8 8b3d
000001e0: 43fa 183e e652 05be 2830 533d 46f2 143e
000001f0: 0cac 0c3e 5e77 febb 2a13 1bbd d106 0ebe
00000200: 008c f13c e92d 0a3e d41b da3b b6cd 7f3d
00000210: 9fad c0bd 2d56 0a3d 7bf7 cb3d 3024 863d
00000220: 9add 8e3d 1716 82bd a34a 143e a67b 49bd
00000230: e778 393d 6ade 9ebd 1dc4 34be 04ae 27be
00000240: b5aa 44be a213 fbbd 65ea 21be eacd 013e
00000250: 2f88 063d ea29 e63d 50ae f33d fca0 aebd
00000260: 55f2 8dbd 99d9 5c3e 7e1f 12bc 6d53 34be
00000270: d928 93bc 0e1e bfbd 3c5c c9bd f425 ff3d
00000280: f65e d13d 8fe5 9e3d 7785 f4bd 7c4c 08be
00000290: fc0e 75be ad0c ce3d 7949 46be 210e 713d
000002a0: 4b62 babc 8d55 78bd c4ab bcbd fc10 233e
000002b0: 415f 0fbc 098e 023e 215c 39be 57d3 003c
000002c0: 4937 11bd a9be 73bd 2988 0e3e 8eb6 873c
000002d0: 154e f73c 27b1 18be 7c05 9abd 7add c8bd
000002e0: 2424 2ebe 0e9f 3abc 7a75 f63d 206f 94ba
000002f0: 1932 b73d d3b0 ecbd d725 fa3b 2cab 45be
00000300: 5532 413c 10a3 24be 3855 acbc 4996 7cbe
00000310: 06e3 b3bd 935a 62bd 5494 f9bc 76b6 a13d
00000320: 1ac6 d7bd fb5a 66bd c567 a4bd abbf b9b9
00000330: 838a 70bd bad8 c1bd 058d 003e fe81 2bbc
00000340: 7598 6bbd 6319 9f3d 32b4 433d 5ca1 8f3d
00000350: 6da1 483c f3d9 d33d 5b4b 093e 41eb a33d
00000360: e22b d7bd b3c6 053e 9199 06bd a691 16bd
00000370: 4ecc 10be 7208 00bd 7b0c f6bd 0476 f6bd
00000380: e070 32be 888b df3d 0b17 863d beaa 8cbd
00000390: 7795 1bb9 b184 fe3d 87dd fa3d 9439 a23d
000003a0: 546d 193e 6789 16be ec2c 693e 8f4a ccbd
000003b0: 7f7f debd d245 5f3e c4de 77bd f682 cebc
000003c0: f9c9 c7bb 9485 2abe d831 bd3c ec83 5abe
000003d0: f8dd b0bc 9f1f a2bd 87b4 cd3b c9c8 ef3c
000003e0: 2f7b 003e b92f 323e 451b 07be cc14 b73d
000003f0: c454 6cbd 141a 433d 5332 3fbe a3eb 88bd

2.weight f4 [128, 256]
0.032815225 0.03375637 -0.055230875 -0.032059856 -0.06602711 -0.0445214 -0.032578133 -0.041143786
0.18495248 0.0027976609 0.055474848 0.084843695 0.031447895 -0.072062284 0.033137906 0.08367858
-0.06690901 0.08321882 0.10426041 -0.022344252 0.033676956 0.152592 -0.035631668 0.031790785
0.010519449 0.046941172 0.07477832 -0.020405568 0.034666188 0.054192826 0.1454147 -0.005259549
0.22914395 -0.011144884 0.032323092 0.016368443 -0.1417278 0.12715894 -0.10237671 -0.101896025
0.002891761 0.007644227 0.0615269 -0.07913096 0.04231493 0.043614462 -0.009999936 -0.053173482
0.04070373 0.087791264 0.12032689 -0.06722074 0.061433386 0.103411645 0.03292011 -0.085226856
-0.18812878 -0.12237901 0.012572917 0.047594555 -0.084751636 -0.026403038 -0.11099132 -0.05179385
0.06275055 0.03534738 -0.00066920713 -0.0158603 -0.042220034 -0.11819042 0.0037966038 0.05303954
-0.01697457 0.041065745 -0.053567115 -0.0334544 -0.044053365 -0.06529634 0.0064719054 -0.0590759
-0.07458316 0.0028500487 0.04314804 -0.14024125 -0.012257425 0.082246 0.114124335 -0.027718568
0.04425832 0.05873209 -0.043717645 -0.06516659 0.045328766 -0.039487585 -0.05009928 0.05430855
0.04417014 0.04345953 0.06542238 0.098160416 -0.16319862 0.029676389 0.033438668 -0.07244585
0.0870082 -0.09561178 -0.07412885 0.072208494 0.10157084 -0.037785314 -0.026145559 0.13612898
0.20431402 -0.08564439 0.040647823 0.0062165246 -0.009632963 -0.047104 0.057945628 -0.082071446
-0.09443155 -0.017861886 -0.1358479 0.025709683 -0.09497565 -0.016960464 -0.04687463 -0.025257295
-0.072991624 -0.07517924 -0.16199103 -0.14502193 -0.14399087 0.063128866 0.13816598 0.046876524
0.04082093 -0.12741245 -0.017672857 0.03940074 0.039982274 0.13107812 -0.12547842 0.065135136
0.087825015 -0.031308305 0.054091774 0.08426741 0.032678783 0.11792705 0.16927752 0.0026356739
-0.032646406 0.09784236 0.052620735 -0.010930437 -0.14345846 0.06769244 -0.01300561 -0.1461076
-0.07636306 -0.101299696 0.04248193 -0.04421283 -0.0602722 0.03435166 0.032315657 -0.010770342
0.12380702 -0.040106777 -0.06888264 -0.06084849 -0.20862673 -0.033250827 -0.056546092 -0.082578816
-0.027953235 -0.106040776 0.05225989 -0.08076061 0.008565485 0.026422868 -0.0352454 0.03639331
-0.052332353 0.046320595 0.049923394 0.016758863 0.056714155 -0.03451673 0.105440855 0.06960965
-0.02570668 0.001644575 -0.120948784 0.039556555 0.1441213 0.067953624 0.006119463 0.04886768
0.03347876 0.05144969 -0.083301425 0.041651227 -0.04153604 -0.028402383 0.0048364354 0.09415106
-0.03749098 -0.0218426 0.05793915 -0.020113919 0.013917224 0.07591125 0.014008249 0.08491346
0.039813075 -0.0037977672 -0.037366357 0.05937373 0.00054491893 0.056057684 0.076764464 -0.047797833
-0.09640117 -0.0012048315 -0.07827054 0.17088726 -0.15097226 -0.12582093 0.13244525 -0.038686387
0.1334479 0.018133864 0.00449861 0.026263362 -0.01991538 -0.012541394 -0.029555483 -0.07196584
-0.029852673 0.121537894 -0.078520186 -0.071257666 0.019068403 0.07165552 -0.019943321 0.20171084
-0.07149265 0.15242295 0.089024544 -0.046809297 -0.0884183 0.0016497537 -0.09203845 -0.14320351
00000000: 4269 063d 1f44 0a3d c539 62bd 3251 03bd
00000010: 3939 87bd 125c 36bd a670 05bd 6386 28bd
00000020: 2f64 3d3e f658 373b 9839 633d 88c2 ad3d
00000030: 82cf 003d 6495 93bd 9dbb 073d ad5f ab3d
00000040: 9707 89bd a16e aa3d 7b86 d53d 4b0b b7bc
00000050: d9f0 093d 1441 1c3e 83f2 11bd 0e37 023d
00000060: c459 2c3c 6345 403d 6025 993d 9429 a7bc
00000070: 22fe 0d3d 4cf9 5d3d 97e7 143e 4b58 acbb
00000080: b6a4 6a3e 0899 36bc 3865 043d 1d17 863c
00000090: 1821 11be f435 023e e1aa d1bd ddae d0bd
000000a0: b383 3d3b 6c7c fa3b a103 7c3d 6a0f a2bd
000000b0: 6c52 2d3d 14a5 323d c6d6 23bc 70cc 59bd
000000c0: f4b8 263d e8cb b33d f26d f63d 07ab 89bd
000000d0: 93a1 7b3d 7cc9 d33d 3dd7 063d 6b8b aebd
000000e0: d5a4 40be d9a1 fabd a3fe 4d3c 82f2 423d
000000f0: 4492 adbd 2f4b d8bc 6b4f e3bd ca25 54bd
00000100: 5c83 803d 6ac8 103d bb6d 2fba 76ed 81bc
00000110: eaee 2cbd d20d f2bd 71d0 783b fd3f 593d
00000120: 410e 8bbc 8e34 283d 3169 5bbd 7b07 09bd
00000130: 4d71 34bd 16ba 85bd 4712 d43b 92f9 71bd
00000140: 0ebf 98bd e2c7 3a3b 00bc 303d 679b 0fbe
00000150: 5ed3 48bc 9770 a83d 05ba e93d 0d12 e3bc
00000160: 3648 353d 0f91 703d 4611 33bd 1076 85bd
00000170: a8aa 393d bcbd 21bd e734 4dbd a472 5e3d
00000180: c0eb 343d 9f02 323d 2bfc 853d 5408 c93d
00000190: 8a1d 27be e61b f33c fcf6 083d 7d5e 94bd
000001a0: 5b31 b23d 1cd0 c3bd ded0 97bd 0ce2 933d
000001b0: 5f04 d03d c6c4 1abd 362f d6bc 6565 0b3e
000001c0: b237 513e 5366 afbd 557e 263d fdb3 cb3b
000001d0: 93d3 1dbc 20f0 40bd 6558 6d3d 1315 a8bd
000001e0: 5465 c1bd 1753 92bc b61b 0bbe 1d9d d23c
000001f0: 9882 c2bd acf0 8abc 9dff 3fbd 63e8 cebc
00000200: a27c 95bd 93f7 99bd fae0 25be a180 14be
00000210: 5872 13be b549 813d 627b 0d3e 9901 403d
00000220: d933 273d 6978 02be abc6 90bc ac62 213d
00000230: 74c4 233d 5839 063e 6a7d 00be 9265 853d
00000240: 9add b33d 233d 00bd 568f 5d3d 6494 ac3d
00000250: 30da 053d bd83 f13d 1657 2d3e 45bb 2c3b
00000260: 3db8 05bd 9361 c83d d788 573d 9315 33bc
00000270: c6e6 12be 55a2 8a3d 7b15 55bc 3b9d 15be
00000280: 3c64 9cbd 3776 cfbd 8801 2e3d 8318 35bd
00000290: fbdf 76bd 54b4 0c3d 6c5d 043d 1776 30bc
000002a0: 898e fd3d 0147 24bd 5712 8dbd 443c 79bd
000002b0: 3fa2 55be 0532 08bd e09c 67bd 151f a9bd
000002c0: 2ffe e4bc e82b d9bd 770e 563d d265 a5bd
000002d0: 3f56 0c3c c574 d83c 7b5d 10bd 2711 153d
000002e0: 735a 56bd aaba 3d3d 797c 4c3d e249 893c
000002f0: 1a4d 683d 6a61 0dbd 60f1 d73d 818f 8e3d
00000300: d196 d2bc c88e d73a ffb3 f7bd 0e06 223d
00000310: 8994 133e 452b 8b3d c785 c83b 7a29 483d
00000320: 0621 093d e9bc 523d f099 aabd 7a9a 2a3d
00000330: b221 2abd 1dac e8bc f67a 9e3b 45d2 c03d
00000340: 2490 19bd 41ef b2bc 9a51 6d3d f2c5 a4bc
00000350: 1105 643c 5c77 9b3d db82 653c 1ce7 ad3d
00000360: 0913 233d f6e3 78bb 770d 19bd de31 733d
00000370: e4d8 0e3a be9c 653d b036 9d3d a9c7 43bd
00000380: fa6d c5bd 70eb 9dba 4e4c a0bd 12fd 2e3e
00000390: 7998 1abe 34d7 00be ba9f 073e 9e75 1ebd
000003a0: 91a6 083e 788d 943c 1369 933b 4326 d73c
000003b0: 9425 a3bc 6b7a 4dbc 571e f2bc d462 93bd
000003c0: 988d f4bc dce8 f83d 31cf a0bd 8aef 91bd
000003d0: 5735 9c3c 21c0 923d 2d60 a3bc 498d 4e3e
000003e0: bd6a 92bd c314 1c3e 8052 b63d 1bbb 3fbd
000003f0: a714 b5bd 8c3c d83a a87e bcbd f1a3 12be

2.bias f4 [128]
-0.014688464 0.074680105 -0.0440011 0.009850856 -0.11016674 -0.08713151 -0.042356607 -0.018333863
-0.09430502 0.03829572 -0.031548683 0.022867816 -0.03884735 -0.00610587 0.028183272 -0.036095988
0.0031203704 -0.052372627 -0.011622062 -0.056628495 -0.06279079 -0.062872946 -0.10696372 -0.13215196
0.01946303 -0.08363697 -0.02413367 -0.058534548 0.007299088 -0.017677741 -0.053994175 -0.06748788
-0.034055028 -0.0874471 -0.07065325 -0.12595522 -0.048696917 -0.06568178 -0.03765454 -0.03675101
-0.014900424 0.06631695 0.02112121 -0.04760333 -0.06382039 -0.038556132 -0.03332792 -0.004725088
0.020826839 -0.05248978 0.024069844 0.06291854 -0.026500696 -0.04988293 -0.02242638 0.016287973
-0.11362558 -0.12029368 0.047083985 0.04667012 0.044251617 -0.043308783 -0.0068515614 0.018298099
-0.030942772 -0.054069698 0.06637469 -0.09468392 0.009076239 -0.051220182 -0.030982882 0.01787843
0.020806838 -0.07208452 -0.014258578 -0.038393654 0.046566688 0.011006202 -0.06209567 -0.060277827
-0.0011060038 -0.09902009 -0.025124926 -0.01713559 0.0021164147 0.0010442613 -0.03586113 -0.002622674
0.008756628 -0.020515546 -0.122265756 -0.0025180168 -0.03118564 0.04910855 0.0358035 -0.022307927
0.02817003 -0.0322565 -0.012647859 -0.020755623 0.029807335 0.05074579 -0.018261153 -0.024650458
0.051246095 0.0062885755 -0.023272477 -0.14519827 -0.018182684 -0.0471853 -0.08651289 -0.054498382
-0.082740285 0.056042653 0.0005982009 -0.027972799 -0.024281885 -0.10513817 -0.051972408 0.043712758
-0.06050263 -0.06865594 -0.004695313 -0.004715773 -0.084541686 -0.18343478 0.036113728 -0.13184631
00000000: e2a7 70bc e2f1 983d 7f3a 34bd 7c65 213c
00000010: 1a9f e1bd 0172 b2bd 1f7e 2dbd e630 96bc
00000020: fe22 c1bd f9db 1c3d 3139 01bd 4955 bb3c
00000030: 661e 1fbd c013 c8bb 9be0 e63c 63d9 13bd
00000040: 217f 4c3b ae84 56bd 766a 3ebc 48f3 67bd
00000050: 7598 80bd 88c3 80bd cb0f dbbd d852 07be
00000060: ef70 9f3c dc49 abbd f9b3 c5bc ecc1 6fbd
00000070: 302d ef3b e9d0 90bc ff28 5dbd 1637 8abd
00000080: 497d 0bbd 7717 b3bd a7b2 90bd 68fa 00be
00000090: 6b76 47bd 2b84 86bd a63b 1abd 3a88 16bd
000000a0: e820 74bc 2ed1 873d 6306 ad3c b6fb 42bd
000000b0: 44b4 82bd 09ed 1dbd db82 08bd e9d4 9abb
000000c0: 0c9d aa3c 86ff 56bd 1f2e c53c 6fdb 803d
000000d0: fd17 d9bc 0b52 4cbd 87b7 b7bc 5b6e 853c
000000e0: 87b4 e8bd 885c f6bd 23db 403d 2b29 3f3d
000000f0: 2f41 353d 8d64 31bd 1083 e0bb e5e5 953c
00000100: b27b fdbc 3078 5dbd 74ef 873d a5e9 c1bd
00000110: 81b4 143c 41cc 51bd d0cf fdbc c975 923c
00000120: 1a73 aa3c 0ca1 93bd d09c 69bc aa42 1dbd
00000130: b6bc 3e3d 5b53 343c 0758 7ebd e2e5 76bd
00000140: 54f7 90ba 0ccb cabd cad2 cdbc f05f 8cbc
00000150: 8cb3 0a3b 98df 883a 1fe3 12bd 2be1 2bbb
00000160: f677 0f3c 3810 a8bc 7866 fabd 5005 25bb
00000170: 0779 ffbc 0c26 493d b1a6 123d 1dbf b6bc
00000180: d6c4 e63c 641f 04bd f738 4fbc b207 aabc
00000190: 832e f43c d1da 4f3d 6a98 95bc c2ef c9bc
000001a0: 6de7 513d 6510 ce3b eca5 bebc dbae 14be
000001b0: daf3 94bc 6045 41bd ac2d b1bd b239 5fbd
000001c0: bd73 a9bd fb8c 653d 95d0 1c3a 3627 e5bc
000001d0: ceea c6bc ae52 d7bd 05e1 54bd 260c 333d
000001e0: 9bd1 77bd 7c9b 8cbd 24db 99bb c586 9abb
000001f0: 3124 adbd 54d6 3bbe fdeb 133d b802 07be

4.weight f4 [128, 128]
-0.098326 -0.09521298 -0.045154076 0.0729744 0.0033039034 -0.07389328 0.04416711 -0.059009988
0.05219637 0.08930884 0.12614876 0.055311855 0.03848887 0.064639725 0.1139113 0.09222363
-0.09800793 0.07599701 0.06739388 0.011715766 0.012436891 -0.04358886 -0.016467424 -0.028776335
0.07167205 0.012556195 0.019330755 0.102676496 0.036755506 -0.0521606 -0.02246769 -0.04195429
-0.16090293 -0.03412553 -0.06774034 0.05213044 0.053607237 0.0047678533 -0.058988325 0.025911586
-0.09281963 -0.072475746 -0.015882 0.10084407 0.09258479 -0.019540172 0.017665466 -0.03559973
-0.09339516 0.04909702 -0.033469148 -0.14955345 -0.00071499497 0.006002351 -0.008232732 0.038572457
0.022799842 0.01906547 0.041887075 -0.005274835 0.0116227465 0.125629 0.03444458 0.056208655
0.09354909 0.06562466 0.073949635 -0.053723127 -0.010886631 0.039213363 -0.045244474 0.04947416
0.04116289 -0.008783712 -0.0214185 -0.017316137 -0.011905872 -0.137837 -0.0035995157 -0.02819219
-0.07786592 -0.07477614 0.033771973 -0.017488675 -0.09229543 -0.010099218 0.105187654 0.09741635
-0.06659031 0.014091452 0.070237204 -0.046759218 0.101222746 0.005309563 -0.018749148 -0.17888847
-0.04382862 -0.056761466 -0.005135794 -0.07849801 0.035413947 -0.06905416 0.03833609 0.1271667
0.0051315348 -0.038300097 -0.081326604 -0.0073615676 0.06386715 -0.0014449301 0.13708554 0.020834783
-0.060139716 -0.07927613 0.114762664 0.1066976 0.030380065 0.074290045 0.0795279 0.1466023
-0.04345248 0.016735822 -0.03634572 -0.03772021 -0.029728925 -0.00081472617 0.03869883 0.023771789
0.05743712 -0.03313151 -0.0707341 -0.07979252 0.03866804 0.078353435 0.016837455 -0.04828001
0.04860412 -0.031168595 0.0069633806 0.06873541 -0.03964116 -0.03233908 0.012859773 -0.028500844
0.04240832 -0.07339136 -0.06418391 0.029215217 0.062291674 0.03358615 -0.0946124 0.06602014
-0.03094824 -0.035049565 0.038043484 0.047419045 0.039276972 -0.0820116 0.089416005 0.050379537
0.037869066 0.041889936 0.04067975 0.15156113 0.054839853 -0.011650772 -0.027674556 0.0014146582
-0.078567825 0.024558583 0.04220795 0.075342774 0.040164955 -0.0075768703 -0.058746874 0.051078975
-0.06612662 0.0672777 -0.081723265 0.017514061 0.037011217 -0.036013417 0.035563823 -0.029152628
0.05484767 0.01867256 0.100118384 0.03481522 -0.02178074 0.04903742 -0.029429462 -0.06604538
-0.02743692 -0.00034248864 -0.013834402 0.0051810215 -0.012406389 0.013272021 0.029031357 0.0913409
-0.034237824 0.014002476 0.08158648 0.014874623 0.044873588 0.024989793 -0.0263962 -0.056668904
-0.055547066 -0.020881316 -0.009010469 -0.098784 0.01447977 0.042076025 -0.092754416 -0.063818924
-0.050592706 0.004573525 0.07587848 0.035127766 -0.057010654 0.008878365 -0.012711371 0.013106624
0.05973788 0.06041367 -0.019132594 -0.005569031 -0.0059498437 0.031441517 0.089433335 -0.05373512
0.062207267 -0.06805835 0.025112044 0.02506481 -0.045529623 0.07604591 -0.027546713 0.018042956
-0.13055052 -0.04536584 -0.012533075 -0.012972812 0.038127754 -0.07742821 -0.041452695 -0.04398989
0.07875947 -0.03638662 -0.011463741 -0.0030232002 0.038669173 0.05447796 0.0041551036 -0.099873535
00000000: 245f c9bd 06ff c2bd 7bf3 38bd 9a73 953d
00000010: 4d86 583b 5c55 97bd 92e8 343d 75b4 71bd
00000020: dccb 553d 8ee7 b63d 242d 013e af8e 623d
00000030: 81a6 1d3d d561 843d 544a e93d bedf bc3d
00000040: 62b8 c8bd 52a4 9b3d cd05 8a3d 7cf3 3f3c
00000050: 1ac4 4b3c 3c8a 32bd b1e6 86bc 59bc ebbc
00000060: ccc8 923d 80b8 4d3c 885b 9e3c 0e48 d23d
00000070: f18c 163d 5aa6 55bd 290e b8bc 43d8 2bbd
00000080: bdc3 24be 36c7 0bbd 73bb 8abd ba86 553d
00000090: 4393 5b3d a73b 9c3b be9d 71bd 8944 d43c
000000a0: 3818 bebd 2a6e 94bd f81a 82bc 5687 ce3d
000000b0: 189d bd3d b612 a0bc 2bb7 903c 06d1 11bd
000000c0: f645 bfbd f519 493d f216 09bd 8a24 19be
000000d0: 806e 3bba 5faf c43b 95e2 06bc 27fe 1d3d
000000e0: bcc6 ba3c 302f 9c3c c891 2b3d 86d8 acbb
000000f0: 556d 3e3c e3a4 003e c315 0d3d 0c3b 663d
00000100: aa96 bf3d 3966 863d e872 973d c80c 5cbd
00000110: d75d 32bc 319e 203d 4552 39bd 6ba5 4a3d
00000120: 6b9a 283d 8fe9 0fbc da75 afbc 92da 8dbc
00000130: d910 43bc 2425 0dbe dae5 6bbb 4ff3 e6bc
00000140: 2b78 9fbd 3c24 99bd 7b54 0a3d 6944 8fbc
00000150: 6305 bdbd 3177 25bc a06c d73d 3982 c73d
00000160: 8060 88bd d5df 663c 86d8 8f3d 9886 3fbd
00000170: df4d cf3d d8fb ad3b d097 99bc 8a2e 37be
00000180: a485 33bd b67e 68bd 2a4a a8bb 91c3 a0bd
00000190: 370e 113d 446c 8dbd 4e06 1d3d fd37 023e
000001a0: 6f26 a83b 90e0 1cbd 908e a6bd 4e39 f1bb
000001b0: c8cc 823d cf63 bdba 2760 0c3e b5ad aa3c
000001c0: 1055 76bd 865b a2bd b008 eb3d 4584 da3d
000001d0: 9ddf f83c 6125 983d 86df a23d ea1e 163e
000001e0: 3afb 31bd 9019 893c 40df 14bd 8280 1abd
000001f0: 138a f3bc 5993 55ba aa82 1e3d 0ebd c23c
00000200: 2f43 6b3d e8b4 07bd 0add 90bd 436a a3bd
00000210: 6162 1e3d c477 a03d b4ee 893c 43c1 45bd
00000220: 1d15 473d 4855 ffbc 122d e43b 27c5 8c3d
00000230: c55e 22bd fc75 04bd ccb1 523c 9a7a e9bc
00000240: 59b4 2d3d 364e 96bd db72 83bd c054 ef3c
00000250: 8e25 7f3d a191 093d 25c4 c1bd 9135 873d
00000260: 2a87 fdbc 2290 0fbd 7cd3 1b3d 793a 423d
00000270: e4e0 203d b3f5 a7bd bd1f b73d c65a 4e3d
00000280: 981c 1b3d c894 2b3d cf9f 263d d732 1b3e
00000290: c19f 603d e1e2 3ebc c0b5 e2bc 0d6c b93a
000002a0: 2be8 a0bd 152f c93c 3ee2 2c3d 504d 9a3d
000002b0: 0284 243d 6547 f8bb 90a0 70bd 3038 513d
000002c0: 656d 87bd e4c8 893d 875e a7bd a679 8f3c
000002d0: 1399 173d ce82 13bd 5fab 113d 7ed1 eebc
000002e0: f3a7 603d 32f7 983c de0a cd3d 679a 0e3d
000002f0: 866d b2bc 76db 483d 0e16 f1bc cd42 87bd
00000300: 64c3 e0bc 0c90 b3b9 b0a9 62bc 8fc5 a93b
00000310: 2b44 4bbc e472 593c 2bd3 ed3c f010 bb3d
00000320: f63c 0cbd a46a 653c d016 a73d b1b4 733c
00000330: 5ecd 373d 65b7 cc3c d83c d8bc a71d 68bd
00000340: 5285 63bd 4b0f abbc a5a0 13bc 444f cabd
00000350: 8f3c 6d3c e957 2c3d 07f6 bdbd 7fb3 82bd
00000360: 4c3a 4fbd 82dd 953b 2d66 9b3d 22e2 0f3d
00000370: 0184 69bd 9076 113c 5b43 50bc 2abd 563c
00000380: b5af 743d 5374 773d f5bb 9cbc 6b7c b6bb
00000390: e8f6 c2bb d2c8 003d d328 b73d 5b19 5cbd
000003a0: 0ccd 7e3d 2d62 8bbd c6b7 cd3c b754 cd3c
000003b0: 457d 3abd f5bd 9b3d a5a9 e1bc d2ce 933c
000003c0: 09af 05be 88d1 39bd 8757 4dbc eb8b 54bc
000003d0: d92b 1c3d ae92 9ebd 4dca 29bd be2e 34bd
000003e0: a54c a13d 230a 15bd 6ad2 3bbc e220 46bb
000003f0: 9163 1e3d 4824 5f3d 8927 883b 7f8a ccbd

4.bias f4 [128]
-0.027550414 0.009708616 -0.024242802 -0.00458518 -0.020565419 -0.022890747 -0.035729583 -0.03589072
0.00591399 -0.025566522 -0.0020824475 0.03817319 -0.018723423 0.008357408 0.031808637 -0.036543515
-0.04403334 -0.12562579 0.03269713 0.0108117 0.012856976 0.0130938105 -0.02274296 -0.05541413
-0.005363112 0.00070588134 -0.0021811016 -0.015078402 -0.050337136 0.013833435 -0.07983262 0.048853207
-0.052430183 0.01919851 -0.0027215232 -0.0698348 -0.02532648 -0.05502526 -0.009889345 -0.07336419
-0.06002678 0.0072671752 -0.00035089423 -0.049061652 6.985448e-05 0.018813437 -0.012896287 -0.02875074
-0.011599523 -0.07350483 -0.053124696 -0.06416772 0.011448017 0.0219924 -0.005586369 -0.027798738
0.0018542439 -0.027836952 -0.055146538 0.014052794 -0.037739567 -0.047207117 0.04268661 -0.082642324
-0.019290809 -0.04801403 -0.0782658 -0.114008404 -0.07194364 -0.01971611 -0.020676829 -0.08290845
-0.057716448 -0.021362167 0.0032469484 -0.013975486 0.05798024 -0.04011115 0.043156084 0.0052909693
0.015391873 0.005684067 -0.10897687 -0.05855058 -0.05622375 0.005146605 0.013413192 -0.0049506384
-0.0148068555 -0.11970116 -0.02021614 0.003502898 -0.019011084 -0.041552104 -0.0013637394 -0.11779318
0.031831276 -0.14331137 -0.04040381 -0.0058231694 0.012999246 -0.058678348 -0.04208603 -0.07288135
0.032865644 0.026289131 -0.05823836 -0.00011481409 -0.0784777 -0.019233767 -0.007764691 0.016152807
-0.037433565 0.015379959 -0.08213494 0.019408513 0.010885501 -0.0136288665 -0.01440179 0.0037485738
-0.07585308 0.012319846 -0.0423817 0.027100869 -0.06937901 -0.037812173 -0.031900663 0.0017041333
00000000: 68b1 e1bc e310 1f3c d798 c6bc 473f 96bb
00000010: cf78 a8bc 6085 bbbc 2f59 12bd 2602 13bd
00000020: 25ca c13b e270 d1bc ac79 08bb 7e5b 1c3d
00000030: dd61 99bc 83ed 083c c649 023d a7ae 15bd
00000040: 4e5c 34bd 0ca4 00be 6ded 053d 8e23 313c
00000050: 11a6 523c 6c87 563c 724f babc edf9 62bd
00000060: 0bbd afbb e50a 393a d0f0 0ebb 670b 77bc
00000070: 502e 4ebd a2a5 623c 497f a3bd 4d1a 483d
00000080: 08c1 56bd 3246 9d3c 955b 32bb 8c05 8fbd
00000090: 7a79 cfbc 2b62 61bd eb06 22bc f73f 96bd
000000a0: a4de 75bd 7c21 ee3b 3af8 b7b9 dff4 48bd
000000b0: d77e 9238 a31e 9a3c f34a 53bc ac86 ebbc
000000c0: ed0b 3ebc b389 96bd 4899 59bd 5e6a 83bd
000000d0: 7790 3b3c 6829 b43c dc0d b7bb 2eba e3bc
000000e0: 1a0a f33a 520a e4bc 56e1 61bd b13d 663c
000000f0: ce94 1abd 405c 41bd 28d8 2e3d 6140 a9bd
00000100: c207 9ebc 5caa 44bd d249 a0bd 3d7d e9bd
00000110: 3057 93bd ae83 a1bc 7462 a9bc e8cb a9bd
00000120: 1568 6cbd b6ff aebc c1ca 543b 70f9 64bc
00000130: b07c 6d3d 974b 24bd 6fc4 303d de5f ad3b
00000140: 322e 7c3c 6941 ba3b 442f dfbd bcd2 6fbd
00000150: e04a 66bd daa4 a83b 01c3 5b3c f738 a2bb
00000160: 7498 72bc e225 f5bd 529c a5bc e090 653b
00000170: 22bd 9bbc 8a32 2abd 80bf b2ba 8d3d f1bd
00000180: 8361 023d 37c0 12be 777e 25bd 49d0 bebb
00000190: cafa 543c b558 70bd 6762 2cbd d142 95bd
000001a0: 209e 063d 4e5c d73c 598b 6ebd 58c8 f0b8
000001b0: ebb8 a0bd 2290 9dbc f36e febb e452 843c
000001c0: f053 19bd 39fc 7b3c 5d36 a8bd 9afe 9e3c
000001d0: 1a59 323c 9c4b 5fbc 7cf5 6bbc a2aa 753b
000001e0: dc58 9bbd 2ed9 493c 6f98 2dbd a402 de3c
000001f0: 9516 8ebd f0e0 1abd 45aa 02bd 3a5d df3a

6.weight f4 [12, 128]
0.033133253 -0.0026497962 0.007645252 0.008706466 0.011127911 -0.0005982276 0.006961635 -0.014382143
-0.000103677216 0.030356482 -0.024244368 0.022770945 0.013568569 0.0016346554 -0.035575718 -0.0020843588
-0.004063365 0.09274477 -0.0370052 -0.0016014668 0.010551026 -0.0048469407 -0.0018316882 0.046648953
0.059795536 -0.020407505 0.10266035 -0.018968638 0.021014791 -0.02306342 -0.010341312 -0.07579378
0.021410242 -0.011124097 -0.009468359 -0.0026975817 -0.006346384 0.027221574 0.020836577 0.0007212439
-0.035685543 -0.022010837 0.002256678 -0.036959637 -0.019286321 0.0068007526 0.036791235 0.0005530237
0.015122911 -0.04301039 0.031228926 -0.06796323 0.00968254 -0.005062987 -0.0037827096 -0.000116013434
-0.0021351315 0.028587336 0.023760835 -0.0030745545 0.030986473 0.013972775 -0.0114206765 0.004323999
-0.0064372285 -0.010968206 0.047745917 0.0062828492 0.023574991 -0.0051931515 -0.021290109 0.008403185
0.046342656 0.016507821 0.010746623 -0.010885258 -0.02619518 0.018093262 -0.007960774 0.020571243
-0.015407667 -0.011178888 -0.009596473 -0.08251568 -0.041500818 -0.0006484785 0.00037890926 0.0070580724
0.0034916594 -0.020801747 0.061095063 -0.013823089 0.018367963 0.01301818 0.017999338 0.041531965
-0.058456562 0.076196566 0.01982784 0.00049562525 -0.004107307 -0.0045197234 -0.004385914 0.0118991155
-0.0033701023 -0.0037294596 0.030892782 -0.0079814885 -0.025681105 0.028416442 0.007850981 0.018870825
-0.004649842 -0.074930206 0.06474304 -0.065948725 -0.009513269 -0.0050354144 0.00645595 -0.028443148
0.018817117 -0.017275438 -0.032548364 -0.026105775 -0.02342053 -0.028550783 -0.0018758493 -0.043841366
0.045515023 -0.010974062 0.025411736 0.008721917 0.021501826 -0.045026984 -0.015269146 0.030098345
-0.010513964 0.039694186 0.004281113 0.07738009 0.01907337 0.02537014 -0.020989096 0.029378612
0.03848222 -0.05439514 0.027664179 0.01695314 -0.027303146 -0.00024351638 0.0026435463 -0.027627783
0.04080422 -0.020146873 0.021365406 0.018567689 -0.022128407 -0.072454214 -0.037874714 0.0072348593
-0.0013715911 0.0258957 0.022489853 0.027968781 -0.022279304 0.010924359 -0.009076447 0.027012993
0.04840305 -0.0323298 0.0072849016 0.0058960607 -0.055682953 0.019191934 0.03473047 -0.043708596
-0.040094078 -0.053077888 -0.055033047 -0.009729823 0.0135988025 0.032322947 -0.03614003 -0.0137407
-0.010428566 0.007458029 0.016780186 0.01572514 -0.019060364 0.00040307743 -0.044037685 -0.007945801
0.021055887 0.0057098707 0.0004003748 -0.0034550584 -0.0016557642 0.008451486 -0.021882147 0.009191981
-0.0051280702 -0.019070217 -0.00930848 -0.01969419 0.07664905 -0.03187808 -0.015725574 0.019059608
-0.019623643 -0.00848135 -0.028387709 -0.096298 0.0040108883 -0.02694179 -0.015417656 -0.026574394
0.0006762525 0.07280368 0.060150895 -0.02321332 -0.008777007 0.016786808 0.0015459126 0.07644839
0.0034914732 -0.06324496 0.017426668 0.0019925525 0.060526874 -0.00024146297 0.021000115 -0.029092582
-0.023808798 -0.0015660528 0.021411872 -0.023968678 0.024591975 -0.019119022 0.007355852 0.010180598
0.0159808 -0.012031249 0.023383712 -0.019395277 0.019355185 0.009843902 -0.05296 -0.03165869
-0.033679463 -0.0036889145 -0.030381136 0.052071262 -0.06384766 -0.07727698 0.002076511 0.0051877094
00000000: bcb6 073d 34a8 2dbb 0685 fa3b 91a5 0e3c
00000010: d751 363c 60d2 1cba 6d1e e43b 14a3 6bbc
00000020: 486d d9b8 28ae f83c 209c c6bc 228a ba3c
00000030: b44e 5e3c ef41 d63a d8b7 11bd bd99 08bb
00000040: fa25 85bb f8f0 bd3d c492 17bd 4fe8 d1ba
00000050: 36de 2c3c 16d3 9ebb 4215 f0ba f912 3f3d
00000060: 2aec 743d a42d a7bc 973f d23d 1e64 9bbc
00000070: 3627 ac3c 7fef bcbc 9b6e 29bc c539 9bbd
00000080: 8864 af3c d841 36bc 2d21 1bbc e9c9 30bb
00000090: 54f5 cfbb c7ff de3c 78b1 aa3c dc11 3d3a
000000a0: 012b 12bd 1250 b4bc c6e4 133b fd62 17bd
000000b0: 59fe 9dbc d9d8 de3b 68b2 163d cbf8 103a
000000c0: 16c6 773c aa2b 30bd ced3 ff3c 4e30 8bbd
000000d0: 84a3 1e3c 6ae7 a5bb 56e7 77bb 3d4c f3b8
000000e0: 90ed 0bbb fd2f ea3c 15a6 c23c 777e 49bb
000000f0: 58d7 fd3c 11ee 643c ca1d 3bbc 55b0 8d3b
00000100: 63ef d2bb feb3 33bc 3991 433d 5ce0 cd3b
00000110: 5720 c13c 502b aabb 9868 aebc 83ad 093c
00000120: ccd1 3d3d 693b 873c 9b12 303c 1558 32bc
00000130: 4697 d6bc 5238 943c e86d 02bc 0685 a83c
00000140: 7070 7cbc a827 37bc 863a 1dbc fbfd a8bd
00000150: c3fc 29bd a8fe 29ba 57a8 c639 6747 e73b
00000160: 53d4 643b 6d68 aabc d13e 7a3d 3d7a 62bc
00000170: 6978 963c 344a 553c 5973 933c 6c1d 2a3d
00000180: 2670 6fbd f20c 9c3d ff6d a23c d9ec 013a
00000190: 9796 86bb 301a 94bb b7b7 8fbb 82f4 423c
000001a0: efdc 5cbb f369 74bb dc12 fd3c cac4 02bc
000001b0: 2e61 d2bc 99c9 e83c 67a1 003c fd96 9a3c
000001c0: b45d 98bb 0275 99bd 0098 843d 2010 87bd
000001d0: 8bdd 1bbc 1e00 a5bb 6f8c d33b 9b01 e9bc
000001e0: 5b26 9a3c 3885 8dbc 6f51 05bd c7db d5bc
000001f0: 69dc bfbc 55e3 e9bc 0fdf f5ba 0193 33bd
00000200: f66d 3a3d 8dcc 33bc 462c d03c 5fe6 0e3c
00000210: 9924 b03c 376e 38bd 712b 7abc ce90 f63c
00000220: c342 2cbc 5f96 223d 9448 8c3b 7479 9e3d
00000230: c23f 9c3c 0ad5 cf3c 53f1 abbc 6aab f03c
00000240: 889f 1d3d 70cd 5ebd fd9f e23c 50e1 8a3c
00000250: d9aa dfbc 6e58 7fb9 593f 2d3b a953 e2bc
00000260: 5322 273d 0e0b a5bc 8106 af3c 441b 983c
00000270: a246 b5bc e062 94bd 8422 1bbd 6612 ed3b
00000280: f6c6 b3ba 3823 d43c a43c b83c c91e e53c
00000290: 1683 b6bc 15fc 323c 61b5 14bc 5a4a dd3c
000002a0: 4742 463d 416c 04bd 2fb6 ee3b be33 c13b
000002b0: cf13 64bd 6738 9d3c 8a41 0e3d c907 33bd
000002c0: b039 24bd 3368 59bd 556a 61bd d669 1fbc
000002d0: 83cd 5e3c 1165 043d 9107 14bd ac20 61bc
000002e0: 93dc 2abc 7b62 f43b 9a76 893c 02d2 803c
000002f0: 7b24 9cbc 2354 d339 dc60 34bd 1b2f 02bc
00000300: 657d ac3c de19 bb3b 65e9 d139 436e 62bb
00000310: 3a06 d9ba 1a78 0a3c 3042 b3bc f699 163c
00000320: 5f09 a8bb 2539 9cbc 9882 18bc b655 a1bc
00000330: 2dfa 9c3d 9792 02bd ebd2 80bc e522 9c3c
00000340: c3c1 a0bc 5cf5 0abc 578d e8bc e337 c5bd
00000350: c56d 833b 07b5 dcbc 569a 7cbc 8bb2 d9bc
00000360: 8946 313a 191a 953d c960 763d dc29 bebc
00000370: 70cd 0fbc 7d84 893c 38a0 ca3a f990 9c3d
00000380: 33d1 643b 9386 81bd 5fc2 8e3c 7c95 023b
00000390: 07eb 773d 3931 7db9 6f08 ac3c 9153 eebc
000003a0: ab0a c3bc 0344 cdba f367 af3c f659 c4bc
000003b0: 1c75 c93c 7f9f 9cbc 5c09 f13b 86cc 263c
000003c0: 2bea 823c b71e 45bc 338f bf3c d8e2 9ebc
000003d0: c48e 9e3c 5148 213c 96ec 58bd 8bac 01bd
000003e0: 7af3 09bd b7c1 71bb dce1 f8bc ad48 553d
000003f0: 90c2 82bd 6543 9ebd 1316 083b a9fd a93b

6.bias f4 [12]
-0.009327568 0.06463315 -0.019561764 0.060946763 -0.0063009034 -0.116661705 -0.03533271 -0.07181281
-0.0020636423 0.040426403 0.054471012 -0.03895673
00000000: a8d2 18bc 635e 843d fe3f a0bc 50a3 793d
00000010: cf77 cebb 55ec eebd 08b9 10bd 9812 93bd
00000020: 2c3e 07bb 2896 253d ff1c 5f3d 1891 1fbd
