legged_gym/policy/booster_t1/booster_t1_10000.onnx (onnx, 253890 bytes, 8 tensors)

0.weight f4 [256, 47]
0	0xbea388ce	-0.3194031
1	0x3c872e71	0.016501637
2	0x3e14482c	0.14480656
3	0xbd461405	-0.048358936
4	0xbcac8b90	-0.021062642
5	0xbbd68bd1	-0.006547429
6	0x3dce321c	0.10068151
7	0xbe496068	-0.19665682
8	0xba3a5fc4	-0.0007109607
9	0x3e1e3ba7	0.15452443
10	0x3e8f2d62	0.27964312
11	0x3ecf4364	0.40481102
12	0x3e48e42c	0.1961829
13	0x3e556155	0.2083791
14	0x3e15bef1	0.1462362
15	0x3ea988c4	0.33112156
16	0xbe24ebe9	-0.16105618
17	0xbee5c18f	-0.44874236
18	0xbdeb6edd	-0.11495755
19	0x3edcc48d	0.43118706
20	0x3eddc129	0.43311432
21	0x3ca2a5f0	0.019854516
22	0x3e4d2ec6	0.20037374
23	0xbf09f83d	-0.53894407
24	0xbe2cf6e1	-0.16891052
25	0x3d9bd1d7	0.07608383
26	0xbe94e21a	-0.29078752
27	0x3d201324	0.039080754
28	0xbda40a8f	-0.080098264
29	0xbe224dd6	-0.15850005
30	0x3e7f9eb8	0.2496289
31	0x3e56a7c7	0.2096244
32	0xbca85aff	-0.020551203
33	0x3dbb19c9	0.091357775
34	0x3e0fcd81	0.14043237
35	0x3c9d081d	0.019168908
36	0xbe126c74	-0.14299184
37	0xbdfc0512	-0.123056546
38	0x3d52151a	0.051289655
39	0x3cddb7fc	0.02706527
40	0xbe1e3892	-0.15451267
41	0xbce81434	-0.028329946
42	0x3d8ad6aa	0.06779225
43	0xbd1b075e	-0.037848823
44	0xbd890585	-0.06690506
45	0xbd2efeb7	-0.042723384
46	0xbe134ce5	-0.14384802
47	0xbed1fae2	-0.4101172
48	0x3efab1e0	0.48963833
49	0x3da0f0cd	0.07858429
50	0xbe8a4291	-0.2700391
51	0xbe7b4538	-0.24538124
52	0x3dd3d818	0.10343951
53	0x3dd5582a	0.104172066
54	0xbda6bbce	-0.0814129
55	0xbd95ca4c	-0.07313976
56	0x3cdf0da3	0.027228182
57	0xbe248e7d	-0.1606998
58	0xbf1fae69	-0.62375504
59	0x3d5a445b	0.053287845
60	0xbb885fcb	-0.00416181
61	0x3dda1894	0.10649219
62	0xbe11d97b	-0.14243118
63	0x3b4386e7	0.0029835047
64	0x3e215f21	0.15758945
65	0xbe9652ac	-0.2935995
66	0xbd9c5090	-0.076325536
67	0xbda89fd5	-0.082336105
68	0x3ec04a37	0.3755662
69	0xbdee0fdc	-0.11624119
70	0xbd905490	-0.07047379
71	0x3e38f714	0.18063003
72	0xbb243976	-0.0025058663
73	0x3da086aa	0.07838185
74	0xbcf94a33	-0.030430889
75	0x3c4234b4	0.011853386
76	0xbf16e090	-0.58936405
77	0xbf133a0b	-0.5751044
78	0x3e507cc4	0.20360094
79	0xbe80c456	-0.25149792
80	0xbe4afa46	-0.19822034
81	0x39df2fc3	0.0004256946
82	0x3e1994e7	0.14998208
83	0x3d2546d1	0.04035074
84	0x3db594c5	0.08866266
85	0xbcf65494	-0.030069627
86	0x3cad1ee0	0.021132886
87	0x3e1ebea4	0.15502411
88	0xbe3f5a06	-0.18686685
89	0x3d9503e9	0.072761364
90	0xbdd151b9	-0.102206655
91	0x3eea732c	0.45790994
92	0xbdcabeb8	-0.09899658
93	0xbd0ece74	-0.034864858
94	0x3efc2a86	0.49251193
95	0x3e582b15	0.21110184
96	0x3dc5c88f	0.09657394
97	0x3ce6923d	0.028145904
98	0x3e1eea2a	0.15519014
99	0xbc23a235	-0.009987404
100	0x3d2ef804	0.042716995
101	0xbeb93119	-0.3617027
102	0x3ea63fa1	0.3247042
103	0xbe54c5dd	-0.20778604
104	0x3d09fa08	0.033685714
105	0x3e8032d5	0.25038782
106	0xbd3cf097	-0.04612788
107	0xbea65fbd	-0.32494918
108	0xbd520879	-0.05127761
109	0xbde8aa7b	-0.113606416
110	0x3e26cf3e	0.16289994
111	0x3e6a8028	0.2290045
112	0xbf0351bd	-0.512966
113	0xbe3d7b8e	-0.18504164
114	0x3c90a8ac	0.017658554
115	0x3dd3acca	0.10335691
116	0xbccc5b1f	-0.024945794
117	0x3e129609	0.14315046
118	0x3dcc8c58	0.09987706
119	0xbd9af8e0	-0.075670004
120	0xbdc7cadc	-0.09755489
121	0xbd97f5bd	-0.07419918
122	0x3d9816fb	0.07426258
123	0xbe02b258	-0.12763345
124	0xbe0be7a4	-0.13662583
125	0x3e15dd17	0.1463512
126	0xbe226873	-0.15860157
127	0xbdba7dd3	-0.0910603
128	0x3dfa498b	0.122210585
129	0x3cb1606b	0.021652421
130	0xbd615c27	-0.055019524
131	0xbe13d7ee	-0.1443784
132	0x3c76e580	0.0150693655
133	0x3e63f2f6	0.22260651
134	0xbeae1f4b	-0.3400825
135	0xbe078baf	-0.13236879
136	0x3e0859f9	0.13315572
137	0x3d4d1c75	0.050075967
138	0x3cf5b8f8	0.029995427
139	0x3cb6480b	0.02225115
140	0xbeebaa8b	-0.4602855
141	0xbf458482	-0.77155316
142	0x3e8ffcc4	0.28122532
143	0x3c6099fe	0.01370859
144	0x3c5ba0d8	0.013405047
145	0xbe042366	-0.12904128
146	0xbc255072	-0.01008998
147	0xbc556a07	-0.013025767
148	0x3ddd6b6e	0.10811506
149	0x3d1ca33c	0.03824161
150	0xbd133c0c	-0.035945937
151	0xbe5747b2	-0.21023443
152	0xbeed60fb	-0.46363053
153	0x3dbbabf9	0.091636606
154	0x3da1de5e	0.07903741
155	0x3e14c6b0	0.14528918
156	0xbe8186be	-0.25298113
157	0x3cb3c925	0.0219465
158	0x3e323004	0.17401129
159	0xbdbed2cd	-0.09317551
160	0xbf047aa1	-0.51749617
161	0xbdfe75b9	-0.124247976
162	0x3ea1cf48	0.31603456
163	0xbde9c6ac	-0.11414847
164	0xbe9003a8	-0.2812779
165	0xbe3b2331	-0.18275143
166	0xbd9efaf6	-0.07762711
167	0x3e49db74	0.19712621
168	0x3d11ea88	0.035624057
169	0xbd315c0a	-0.043300666
170	0xbea0aed9	-0.31383398
171	0xbe9e770d	-0.30950204
172	0x3d584fb6	0.052810393
173	0xbe809b3d	-0.25118437
174	0x3e083388	0.13300908
175	0xbe7040cd	-0.2346222
176	0x3db96d7d	0.09054086
177	0x3dba9b56	0.09111659
178	0x3e991170	0.29896116
179	0x3e67954b	0.22615544
180	0x3e9473d2	0.28994614
181	0xbd46570a	-0.04842285
182	0xbe941abe	-0.28926653
183	0x3dc962c0	0.09833288
184	0x3eab30f2	0.3343578
185	0x3ecc7223	0.3993083
186	0xbe840aa0	-0.25789356
187	0xbdab5408	-0.08365637
188	0xbee8f172	-0.45496708
189	0x3f7be0cd	0.98389894
190	0xbcc5161f	-0.0240584
191	0xbe39c1fa	-0.18140402
192	0xbdcce2b0	-0.10004175
193	0x3d85adc4	0.06527284
194	0xbe1c2d8e	-0.15251753
195	0x3b85576a	0.0040692585
196	0xbe1ff413	-0.1562045
197	0xbe5ecdae	-0.21758148
198	0xbd76069e	-0.060064904
199	0x3e666178	0.22498119
200	0x3ee633d6	0.44961423
201	0xbecd8cbc	-0.40146434
202	0x3e5e0f87	0.2168561
203	0xbd83c785	-0.0643454
204	0xbc25c3d5	-0.010117491
205	0x3dad2930	0.084551215
206	0xbdb28089	-0.087159224
207	0x3e8850e0	0.26624203
208	0xbea0a95d	-0.31379214
209	0xbc915466	-0.01774044
210	0x3c1703e4	0.009217236
211	0x3e9bdc84	0.30441678
212	0x3e3853ce	0.18000719
213	0xbc27ed1e	-0.010249404
214	0x3d9b2d90	0.0757705
215	0xbd451ca3	-0.048123013
216	0x3e4cdab2	0.200053
217	0xbd4d2254	-0.050081566
218	0xbe0777b8	-0.13229263
219	0x3e88f71d	0.26751032
220	0xbe077809	-0.13229384
221	0xbc933034	-0.017967321
222	0x3d5b14d1	0.05348665
223	0x3cac7d75	0.021055916
224	0xbe2a9569	-0.16658558
225	0x3dc42d6f	0.09578978
226	0xbdf2c3f5	-0.11853782
227	0x3e19ee36	0.15032277
228	0xbc0b4d20	-0.008502275
229	0xbe14602f	-0.14489816
230	0x3c9f4eb2	0.019446705
231	0x3ee3e11c	0.44507682
232	0x3dbf467d	0.093396164
233	0xbcc595c1	-0.02411926
234	0xbd8a50e0	-0.06753707
235	0x3e211fdd	0.15734811
236	0x3ed8fecd	0.42381898
237	0x3de9b799	0.114119716
238	0x3dc0d141	0.09414912
239	0x3c7cb196	0.015423199
240	0xbd0b8621	-0.034063462
241	0x3e4b09eb	0.19828002
242	0x3da1ff81	0.07910062
243	0x3d3ef5f0	0.046621263
244	0xbe7fdef1	-0.24987389
245	0x3de8604d	0.11346493
246	0xbf195e4e	-0.5990952
247	0x3eb08ea3	0.34483823
248	0xbe861d2c	-0.2619413
249	0xbe474c50	-0.19462705
250	0x3d6320b0	0.055451095
251	0x3e2f6c5d	0.17131181
252	0x3f4b0d3c	0.7931707
253	0x3cbe6998	0.02324371
254	0xbeda024d	-0.4257988
255	0xbe0a4420	-0.1350255

0.bias f4 [256]
0	0xbe336f65	-0.17522962
1	0x3dc19b1a	0.094534114
2	0xbdf6ca31	-0.12050284
3	0x3d833147	0.06405883
4	0xbd9e94f0	-0.07743251
5	0x3d9fb0ba	0.0779738
6	0x3c0513dc	0.008122411
7	0xbd7ba399	-0.061435316
8	0xbd48d9ac	-0.049035713
9	0x3e1cc8fe	0.15311047
10	0x3cad853e	0.021181699
11	0x3d97798e	0.073962316
12	0xbe24fac8	-0.1611129
13	0xbd53b8ab	-0.051689785
14	0xbc85cb04	-0.016332157
15	0xbdc88d8e	-0.097926244
16	0xbdec1ed0	-0.115293145
17	0xbc98df2c	-0.018661104
18	0x3e04d99c	0.12973636
19	0x3d9f2c49	0.077721186
20	0xbe1caf1e	-0.15301177
21	0x3e4054dd	0.18782373
22	0xbcc7dd74	-0.02439759
23	0x3c2ec247	0.0106664365
24	0xbca14b9c	-0.019689374
25	0xbdb4e2ad	-0.088322975
26	0x3d9975da	0.074931815
27	0x3d9cf92b	0.076647125
28	0xbdd7e106	-0.10540967
29	0x3cb3be21	0.021941246
30	0xbdc5021d	-0.09619544
31	0x3dcb44f9	0.09925265
32	0x3d93131c	0.07181379
33	0xbdd914ca	-0.10599668
34	0x3d5ef7b0	0.054435432
35	0xbe28204e	-0.16418573
36	0xbe1f2f21	-0.15545322
37	0xbd830c05	-0.06398777
38	0x3d8018fa	0.06254764
39	0xbe72085d	-0.23636003
40	0x3cd4b435	0.025964836
41	0xbe806e24	-0.2508403
42	0x3c2aef06	0.010432964
43	0xbdf20dcf	-0.1181904
44	0xbd455168	-0.04817334
45	0x3d8f8e5c	0.07009575
46	0xbe98c82f	-0.29840228
47	0x3dbc0e77	0.091824464
48	0xbe22fd2b	-0.15916888
49	0x3e2acbc0	0.16679287
50	0x3e4e53bc	0.2014913
51	0xbd2e6f56	-0.042586647
52	0xbe33238d	-0.1749403
53	0x3d2ce9e9	0.04221526
54	0x3d92ce37	0.071682386
55	0xbd587905	-0.05284979
56	0xbd92e555	-0.07172648
57	0xbded5704	-0.115888625
58	0xbc66e172	-0.014091836
59	0x3e3dff1a	0.18554345
60	0x3d1e4f45	0.038649816
61	0x3d28c1af	0.041200336
62	0xbd608431	-0.054813568
63	0x3ba2032b	0.0049442253
64	0xbe1227bc	-0.1427297
65	0xbe764da6	-0.24053058
66	0x3e073b4d	0.13206215
67	0x3dcc9f2e	0.099912986
68	0x3e2715a1	0.16316845
69	0x3bc99adf	0.0061524953
70	0x39a72025	0.00031876672
71	0xbca218b2	-0.019787166
72	0xbd6c6921	-0.057717446
73	0xbe24643d	-0.16053863
74	0xbcbfab48	-0.023397103
75	0x3c050dc6	0.00812096
76	0xbdf5dd04	-0.12005046
77	0xbd3c3753	-0.0459512
78	0xbc793e58	-0.015212618
79	0xbe60f07a	-0.21966735
80	0xbe8bb0d8	-0.2728336
81	0xbe1dc910	-0.1540873
82	0xbd82c918	-0.06386012
83	0x3c938d9b	0.018011859
84	0xbc6f4f9c	-0.014606383
85	0x3db6cd0a	0.08925827
86	0x3e2121de	0.15735576
87	0xbdbd1d39	-0.092340894
88	0x3b340b1e	0.0027472447
89	0x3c6187c0	0.0137652755
90	0xbd479133	-0.048722457
91	0xbe10c170	-0.1413629
92	0xbdb04f16	-0.086088344
93	0xbe0b523a	-0.13605586
94	0x3dda40b7	0.106568746
95	0xbdc09bbc	-0.09404704
96	0xbe1dd14e	-0.15411875
97	0x3e03aa2d	0.12857886
98	0x3d4d8351	0.05017406
99	0x3e15029b	0.14551775
100	0xbe33f534	-0.17574006
101	0xbdc9c6b5	-0.098523535
102	0xbd8ff6d7	-0.07029503
103	0xbe3e4f42	-0.18584922
104	0xbe0ecad0	-0.13944554
105	0x3da96be0	0.08272529
106	0x3ce5ef85	0.028068313
107	0xbd85a418	-0.06525439
108	0xbdac964b	-0.084271036
109	0x3e3682a6	0.17823276
110	0x3ca2e7df	0.019885955
111	0xbd57a004	-0.052642837
112	0xbdb095ca	-0.0862232
113	0xbd61fd7c	-0.055173382
114	0xbd1382cf	-0.03601342
115	0xbc7a79f1	-0.015287862
116	0xbda5f677	-0.0810365
117	0x3ca53c10	0.020170242
118	0x3d0eb1ef	0.03483766
119	0x3d44f9a1	0.048089627
120	0x3e004235	0.12525256
121	0xbe2f34bb	-0.17109959
122	0x3e3a1c3d	0.18174835
123	0x3e08c891	0.1335776
124	0x3db363c3	0.087592624
125	0x3b9307ac	0.0044869985
126	0x3d39ad06	0.045331024
127	0xbdb8e3f8	-0.090278566
128	0x3d705dba	0.058683135
129	0x3d553bc3	0.052058946
130	0xbd0a61e4	-0.033784762
131	0x3bd00580	0.006348312
132	0xbe0a80ef	-0.13525747
133	0xbd07d45c	-0.033161506
134	0x3d9a1c38	0.075249135
135	0x3d69caa0	0.057078004
136	0x3d9176bd	0.07102726
137	0xbe17cc16	-0.14823946
138	0x3e283b89	0.16428961
139	0xbdb7ec45	-0.08980612
140	0x3c27ec92	0.010249274
141	0xbda79b9f	-0.08183979
142	0xbe5e9f9b	-0.21740572
143	0xbe24ff6d	-0.16113062
144	0xbe4d2f65	-0.20037611
145	0xbdfce8f2	-0.12349118
146	0xbe05e330	-0.13074946
147	0x3e1ce646	0.15322217
148	0xbbdd7668	-0.0067585
149	0x3e093f83	0.13403134
150	0x3defe821	0.11714197
151	0xbe38be51	-0.1804135
152	0xbe42628e	-0.18982908
153	0x3e27abb2	0.1637409
154	0xbda0d4cb	-0.07853087
155	0xbe7904bb	-0.24318211
156	0xbd75da86	-0.060022853
157	0xbd2b6d4c	-0.04185228
158	0xbdb2411f	-0.08703827
159	0x3df33e33	0.11877098
160	0x3de13132	0.109957114
161	0x3d72998e	0.059228472
162	0xbdea7a75	-0.11449138
163	0xbe28ce98	-0.1648506
164	0xbe42f7a3	-0.19039778
165	0x3d5ce9e9	0.05393401
166	0xbd856b29	-0.0651458
167	0x3d2f94db	0.04286657
168	0xbd83565b	-0.064129554
169	0xbe1b2dba	-0.15154162
170	0xbdc94f28	-0.09829551
171	0x3d66fc0b	0.05639271
172	0xbdbc3f16	-0.0919172
173	0x3dd1fead	0.10253654
174	0xbe3b16e3	-0.1827045
175	0x3cb39fa8	0.021926716
176	0xbda243eb	-0.079231106
177	0xbd8c50f6	-0.068513796
178	0x3e16833c	0.146985
179	0xbccd7b1d	-0.025083119
180	0x3df2b889	0.118516035
181	0xbe0e20d2	-0.13879707
182	0xbe12ee15	-0.14348634
183	0xbde510fb	-0.111848794
184	0xbda5560c	-0.08073053
185	0xbd04cdbe	-0.032422774
186	0x3dd23bbb	0.10265299
187	0x3cd02d4f	0.02541223
188	0x3e08dcb8	0.13365448
189	0xbd88780a	-0.06663521
190	0xbc864fa5	-0.0163954
191	0xbe657dc0	-0.22411251
192	0x3d4dafb6	0.0502164
193	0xbe0f4e56	-0.13994727
194	0xbc1a3ab6	-0.009413412
195	0xbe9c9e46	-0.30589503
196	0xbca7f18f	-0.020500926
197	0xbd960a48	-0.0732618
198	0x3d5ff4e8	0.05467692
199	0x3d40f76d	0.047110964
200	0xbdb7ba4c	-0.0897108
201	0xbdeed4c5	-0.11661676
202	0xbdcbb1a2	-0.0994599
203	0xbc84dab9	-0.016217576
204	0xbde848de	-0.11342023
205	0xbe03bd56	-0.12865195
206	0x3e0c61f9	0.13709249
207	0xbd04c637	-0.032415595
208	0xbd37ea1d	-0.044901002
209	0x3d95554f	0.07291662
210	0xbb2ce9bb	-0.0026384431
211	0xbc4c6021	-0.012474091
212	0xbd55e87c	-0.052223668
213	0x3dafe74e	0.0858904
214	0x3ded3a25	0.11583356
215	0x3d7d6371	0.061862413
216	0xbde3252a	-0.11091073
217	0x3de5b99f	0.11217045
218	0xbb36e2b8	-0.002790613
219	0x39c72331	0.00037982457
220	0xbe29544f	-0.16536067
221	0x3d425393	0.047442984
222	0xbe2de8f1	-0.16983391
223	0xbe2a2b9d	-0.166182
224	0xbe3e4c60	-0.18583822
225	0x3e0db1b7	0.13837324
226	0x3d144ba2	0.03620494
227	0xbdd5c639	-0.104381986
228	0x3c8b2705	0.01698638
229	0x3de5586d	0.111985065
230	0x3dd51353	0.104040764
231	0x3d28b3c8	0.041187078
232	0x3de0ecf3	0.109826945
233	0xbdf391bf	-0.11893033
234	0x3e152bfd	0.14567561
235	0xbde5dfd9	-0.11224336
236	0xbd2c505f	-0.042068835
237	0x3e4c90c8	0.19977105
238	0xbd9e227a	-0.0772142
239	0xbd85c2a3	-0.06531265
240	0xbd5ca9e9	-0.053872976
241	0xbe41dd2b	-0.18932025
242	0xbd945fbd	-0.07244823
243	0xbe694c3e	-0.2278299
244	0x3c51d0ff	0.012806176
245	0xbd8811e1	-0.06644035
246	0xbca895d1	-0.02057925
247	0x3dd8a19e	0.10577701
248	0x3ded3918	0.115831554
249	0x3e3af017	0.1825565
250	0xbe19fc5b	-0.15037672
251	0x3dabb03b	0.08383223
252	0xbdd2374d	-0.10264454
253	0x3cac319a	0.021019746
254	0xbe21c2c9	-0.15796961
255	0xbd9cbe60	-0.07653499

2.weight f4 [128, 256]
0	0x3d698432	0.057010837
1	0x3df18e0c	0.117946714
2	0x3c65b429	0.014020004
3	0x3c991e3f	0.01869118
4	0xbda651a1	-0.08121038
5	0xbd6679a3	-0.056268346
6	0xbc157306	-0.009121662
7	0x3ba82336	0.0051311506
8	0x3da439b1	0.08018816
9	0xbd5b98af	-0.053612407
10	0xbddde344	-0.10834363
11	0xbd049c63	-0.032375704
12	0x3b578073	0.0032882958
13	0xbd7278ce	-0.05919724
14	0xbd2d9d1a	-0.04238615
15	0x3e64a8c7	0.22330008
16	0xbcd047a2	-0.025424782
17	0x3d567302	0.052355774
18	0x3dc84116	0.09778039
19	0x3dc61bd0	0.096732736
20	0xbd67bb56	-0.05657514
21	0xbc027928	-0.007963456
22	0xbdf1ae92	-0.11800875
23	0x3daf8d72	0.085719004
24	0xbcd34566	-0.025789928
25	0x3e6be9b7	0.23038374
26	0x3d3c37fc	0.04595183
27	0x3cc17fef	0.023620574
28	0xbd00d75b	-0.03145538
29	0xbd1e97f4	-0.038719133
30	0x3e2e4452	0.1701825
31	0xbdff12cb	-0.12454756
32	0xbc0ff32f	-0.008786007
33	0xbcdc4982	-0.02689052
34	0x3d06bf69	0.032897387
35	0x3dba265f	0.0908935
36	0xbdad8901	-0.08473397
37	0x3db6b455	0.08921114
38	0xbdfe23be	-0.12409161
39	0xbe49160d	-0.19637318
40	0xbe39c983	-0.18143277
41	0x3e1150b0	0.14190936
42	0x3ddec46b	0.108773075
43	0xbd04a740	-0.032386065
44	0xbc6f5d4b	-0.014609645
45	0x3de87099	0.11349601
46	0xbb72f970	-0.0037074946
47	0x3c88dcbf	0.016706822
48	0xbcf0193e	-0.029308911
49	0xbc95135e	-0.018197712
50	0xb846b47a	-4.737496e-05
51	0x3c5583e7	0.013031936
52	0x3aec81fe	0.0018044112
53	0x3d8ce2ad	0.068791725
54	0xbd3e0086	-0.046387218
55	0xbda8087c	-0.08204743
56	0xbe6ab58b	-0.22920816
57	0xbdd0f003	-0.102020286
58	0xbd9739ae	-0.073840484
59	0x3dd1a33e	0.10236214
60	0x3d36ec06	0.044658683
61	0x3d2fcac1	0.04291797
62	0xbbf45539	-0.0074564484
63	0xbe06682a	-0.13125673
64	0x3dd4fc0f	0.10399639
65	0xbd15573c	-0.036460146
66	0xbdc75388	-0.09732729
67	0xbdce15bd	-0.1006274
68	0xbc514750	-0.01277335
69	0xbdedd89f	-0.11613583
70	0xbcd5998c	-0.026074193
71	0x3ccb7601	0.024836542
72	0xbdb047ce	-0.08607446
73	0x3d72957f	0.0592246
74	0x3d494db8	0.049146384
75	0x3cac0e2e	0.021002855
76	0x3dc7a13c	0.0974755
77	0xbd54dc31	-0.051967803
78	0x3ac7540d	0.0015207544
79	0xbc312055	-0.010810931
80	0xbcbfac52	-0.023397598
81	0x3d8d40e5	0.06897143
82	0x3d9234e3	0.071389936
83	0xbd95f4c6	-0.073220775
84	0xbd8c870a	-0.06861694
85	0x3d5e6d92	0.054303713
86	0x3d5af453	0.053455662
87	0xbdab79c4	-0.08372834
88	0x3e0aed3d	0.13567062
89	0x3c8e9639	0.017405616
90	0xbd8b6f85	-0.0680838
91	0xbd482ef2	-0.048872896
92	0x3dcac595	0.09900967
93	0xbdf97b08	-0.121816695
94	0x3d1096fa	0.035300232
95	0xbd988df5	-0.07448951
96	0x3d6550bd	0.0559852
97	0x3e245da2	0.16051343
98	0xbd5c36c5	-0.05376317
99	0x3de45507	0.1114903
100	0xbc739f3a	-0.014869506
101	0x3d52ef99	0.05149803
102	0xbce67d29	-0.028135853
103	0xbd3ef167	-0.046616938
104	0x3d1052b8	0.035235137
105	0x3ce2a4b4	0.027666427
106	0xbdf5ae2c	-0.11996111
107	0x3dbb004c	0.09130916
108	0x3daebae9	0.08531744
109	0x3b03f8e1	0.0020137357
110	0x3d5a0158	0.053223938
111	0xbc8011ea	-0.015633542
112	0x3e0da209	0.13831343
113	0x3c939c87	0.018018974
114	0x3c34bc70	0.011031255
115	0x3d5c5617	0.05379304
116	0xbcce754f	-0.025202421
117	0x3bbb7bb9	0.005721536
118	0x3ddee2dd	0.108831145
119	0xbd866ee4	-0.065641195
120	0xbbcbd47e	-0.0062203994
121	0xbd9cc045	-0.0765386
122	0xbd3eaa5b	-0.046549182
123	0x3cfa2ff8	0.030540451
124	0xbc6ad863	-0.014333817
125	0xbc578468	-0.013154127
126	0x3d5989b9	0.05310986
127	0x3cc597e4	0.024120279
128	0xbcb064d2	-0.02153245
129	0xbbd9de63	-0.006648825
130	0xbe594357	-0.21217094
131	0xbe43350b	-0.19063203
132	0xbd960280	-0.073246956
133	0xbe0448e0	-0.12918425
134	0x3dd39fd3	0.103332184
135	0x3dc610bb	0.0967116
136	0x3e51634b	0.20448034
137	0xbb089d41	-0.0020845684
138	0xbd574613	-0.052557062
139	0xbdf8aadf	-0.12141966
140	0x3d9277bf	0.07151746
141	0x3dd2cdb5	0.10293142
142	0xbc86e86d	-0.016468251
143	0x3ceb9472	0.028757308
144	0x3d6f6dc6	0.058454297
145	0xbc6d84e5	-0.014497017
146	0x3d05c34d	0.032656956
147	0x3c9c14e3	0.019052928
148	0x3c7e2300	0.015511274
149	0x3dc91c5f	0.098198645
150	0x3e3cf307	0.18452083
151	0x3d347193	0.044053625
152	0xbbdfbc24	-0.006827848
153	0x3d794233	0.060854148
154	0x3e2151cb	0.15753858
155	0x3c9559d6	0.018231314
156	0xbe3d992e	-0.18515465
157	0x3dfac73a	0.12245031
158	0x3d0c6be7	0.03428259
159	0x3d75a84e	0.05997496
160	0xbdbfe55e	-0.0936992
161	0xbd107974	-0.035272077
162	0x3dd7c588	0.10535723
163	0xbdf666e7	-0.12031346
164	0xbd756a4e	-0.059915833
165	0xbc4d9ce4	-0.012549613
166	0x3c1af624	0.009458099
167	0xbce2281a	-0.027607013
168	0x3d463450	0.048389733
169	0x3da882fe	0.0822811
170	0xbe18be65	-0.1491638
171	0x3ca66e76	0.020316344
172	0xbd16a7f5	-0.03678127
173	0x3d3f1d52	0.04665882
174	0xbe76f8d2	-0.24118355
175	0xbde8e3c1	-0.113715656
176	0xbd6ce884	-0.05783893
177	0xbd09ab2c	-0.033610508
178	0x3e03a33c	0.12855238
179	0xbd6807cb	-0.056648057
180	0xbd795733	-0.060874175
181	0xbccd8ffa	-0.025093067
182	0x3d506f1d	0.050887216
183	0x3dc742fb	0.097295724
184	0xbd935ffb	-0.07196041
185	0xbd814e07	-0.06313711
186	0xbd7ecbac	-0.062205955
187	0x3be58980	0.0070049167
188	0x3d4c129a	0.049822427
189	0xbda3b5ee	-0.07993685
190	0x3e0bb3b8	0.13642776
191	0xbb876027	-0.0041313353
192	0xbd4af5d8	-0.04955086
193	0x3d5641c8	0.052308828
194	0xbdb39760	-0.08769107
195	0x3d2c47d4	0.04206069
196	0x3e5bc1ad	0.214606
197	0x3dbf3cd4	0.09337774
198	0x3c8dea55	0.017323652
199	0x3d0ca9dc	0.034341678
200	0xbde027f9	-0.10945124
201	0xbd388750	-0.04505092
202	0xbd05b20d	-0.032640506
203	0xbd8ab2fb	-0.06772419
204	0xbda3c42e	-0.07996403
205	0x3c5dd7ed	0.01354025
206	0x3c7ab441	0.015301765
207	0x3cc9aa1b	0.024617245
208	0x3d5f7ee4	0.05456437
209	0x3d09a401	0.033603672
210	0x3cab033f	0.020875571
211	0xbd2c784a	-0.042106904
212	0x3e128455	0.14308293
213	0x3e3b5bf3	0.18296795
214	0x3d94f402	0.07273103
215	0x3e41f513	0.18941145
216	0xbcf9e10e	-0.030502822
217	0x3d303d8d	0.04302745
218	0xbcebedd4	-0.028799929
219	0xbc1661ff	-0.0091786375
220	0xbd95b438	-0.073097646
221	0x3dbdf93e	0.09276055
222	0x3cabf6a7	0.020991636
223	0xbc151f7e	-0.009101747
224	0xbd8be1d0	-0.0683018
225	0x3e0802bb	0.13282292
226	0xbd359bdc	-0.044338092
227	0x3d1a2cc4	0.037640348
228	0xbd9dea33	-0.077106856
229	0xbdd69c2f	-0.104790084
230	0x3e5c47a9	0.21511711
231	0xbac34ba6	-0.0014899864
232	0x3dcffeab	0.10155996
233	0x3c3132a9	0.010815301
234	0x3dd276b2	0.102765456
235	0xbdc78114	-0.097414166
236	0xbdc00954	-0.09376779
237	0x3c0d67cf	0.008630707
238	0xbc20bc6c	-0.009810548
239	0xbd7f3e42	-0.062315233
240	0x3e43e1e3	0.19129138
241	0x3d79a58a	0.060948886
242	0xbb933d77	-0.004493411
243	0xbdd67354	-0.10471216
244	0x3cc95710	0.024577647
245	0x3c8d09ca	0.017216582
246	0x3d581927	0.052758362
247	0x3cfe74b4	0.031061508
248	0xbd34ca53	-0.044138264
249	0x3e1a3b1c	0.15061611
250	0xbcc47ff1	-0.023986788
251	0x3c5cb511	0.013470904
252	0xbd8b97d5	-0.06816069
253	0x3dc72692	0.097241536
254	0x3af9e2a9	0.0019064742
255	0xbdc7729e	-0.09738658

2.bias f4 [128]
0	0x3c807ef2	0.015685532
1	0x3c85babb	0.016324392
2	0xbd611298	-0.054949373
3	0x3d36f57f	0.044667717
4	0xbd044c8a	-0.032299556
5	0xbd83783f	-0.064194195
6	0xbc16feb7	-0.009216002
7	0xbc2ace96	-0.0104252305
8	0xbdb1a330	-0.08673704
9	0xbc3e1060	-0.011600584
10	0xbdab2aa6	-0.08357744
11	0xbd461509	-0.048359904
12	0xbd885a86	-0.06657891
13	0xbd50ee52	-0.05100853
14	0xbc1922d4	-0.009346683
15	0xbd27ddbe	-0.040982954
16	0xbd37facd	-0.044916917
17	0x3c4825b1	0.012216018
18	0x3d4341ec	0.04767029
19	0xbd4b093a	-0.049569346
20	0xbdc81ca8	-0.09771091
21	0xbd158389	-0.036502395
22	0xbd992d48	-0.0747934
23	0xbdacab49	-0.084311076
24	0x3c647ec3	0.013946238
25	0xbd9b453d	-0.075815655
26	0xbd625089	-0.055252586
27	0x3b92b2e1	0.0044768904
28	0xbc77ac67	-0.0151167875
29	0xbd2c1115	-0.04200848
30	0xbdb4f477	-0.088356905
31	0xbe06bf76	-0.13158974
32	0xbdc54bf4	-0.096336275
33	0xbe0573a8	-0.130324
34	0xbd9558c7	-0.072923236
35	0xbd8e3ec1	-0.06945563
36	0xbc4b77cb	-0.012418698
37	0xbdc47517	-0.095926456
38	0xbdaf769b	-0.08567544
39	0xbd6b1cb8	-0.057400435
40	0xbd7c0f2f	-0.061537918
41	0x3d1d4b42	0.03840185
42	0x3d685064	0.05671729
43	0xbcbd3166	-0.023094844
44	0xbd984387	-0.07434755
45	0xbd814dd4	-0.06313673
46	0xbc884f77	-0.016639454
47	0x3cb4b983	0.022061115
48	0xbcfe19e2	-0.031018201
49	0xbd8b1fbd	-0.06793163
50	0xbbf33945	-0.0074225985
51	0xbc6178e1	-0.01376173
52	0xbd9a7516	-0.075418636
53	0xbe05fc8c	-0.1308462
54	0x3c148584	0.009065036
55	0x3c6756a6	0.01411978
56	0xbddf01d1	-0.10889018
57	0xbd4113c1	-0.04713798
58	0x3d691b29	0.056910668
59	0xbaf911a8	-0.0019002454
60	0x3be0e59f	0.0068633105
61	0xbd398276	-0.045290433
62	0xbc8aa9b5	-0.016926626
63	0xbd00c70b	-0.031439822
64	0xbd12d45f	-0.035847064
65	0x3bd53ef6	0.0065077497
66	0x3d153039	0.03642294
67	0x3bcf0126	0.0063172756
68	0xbcc5becc	-0.02413883
69	0xbddc6d49	-0.10763032
70	0xbe0bc93c	-0.13650984
71	0x3ce48191	0.027893813
72	0x3d31d13c	0.043412432
73	0x3c6ac0b8	0.014328174
74	0x3d7b06a5	0.061285634
75	0x3a38e1f9	0.00070527155
76	0x3d23a509	0.03995231
77	0xbc2f2d8a	-0.01069201
78	0xbd8b60fb	-0.06805607
79	0xbe0c2ee0	-0.13689756
80	0xbcddd006	-0.027076732
81	0xbdae3ea6	-0.08508043
82	0xbd4f17e3	-0.05055989
83	0x3cb6a9b4	0.022297718
84	0xbd8e5a26	-0.06950788
85	0xbc9c3a0a	-0.019070644
86	0xbcadc3db	-0.021211555
87	0xbdd1a5b1	-0.10236681
88	0xbbd0d714	-0.0063732956
89	0xbdc417e6	-0.09574871
90	0xbdcecd29	-0.10097725
91	0xbb314901	-0.002705157
92	0xbdd612a0	-0.10452771
93	0x3d3dfb4a	0.046382226
94	0xbd8c9a38	-0.068653524
95	0xbda7c6e1	-0.0819223
96	0x3d21373a	0.03935931
97	0xbdbfddb7	-0.093684606
98	0x3ce2034b	0.02758946
99	0xbd9228c7	-0.07136684
100	0xbc3e56f9	-0.011617416
101	0x3d82db63	0.06389501
102	0xbce49f4d	-0.027907992
103	0xbd61aa36	-0.055093966
104	0xbc94e2d6	-0.01817457
105	0xbd5409a7	-0.051767018
106	0xbd2dbbec	-0.042415544
107	0xbdec872a	-0.11549218
108	0xbcda107d	-0.02661919
109	0xbde29aea	-0.11064704
110	0xbd929f38	-0.07159275
111	0xbd66cba0	-0.056346536
112	0xbdc848e8	-0.09779531
113	0x3dd8363d	0.1055722
114	0xbd0c4226	-0.03424277
115	0xbb6294de	-0.0034573595
116	0xbd44d681	-0.04805613
117	0xbd8b8756	-0.06812923
118	0xbd58b483	-0.052906524
119	0xbdd79b50	-0.105276704
120	0x3c02551d	0.007954863
121	0xbdcfc360	-0.10144687
122	0xbd15205f	-0.036407825
123	0xbd93330a	-0.07187469
124	0xbda902f0	-0.082525134
125	0xbda225e5	-0.07917384
126	0xbdc8c65d	-0.0980346
127	0xbe19cc31	-0.15019299

4.weight f4 [128, 128]
0	0xbd9f77e4	-0.07786539
1	0xbd9a6dc4	-0.075404674
2	0x3cde86d8	0.027163908
3	0x3bcaedb6	0.006192888
4	0xbd92ca2a	-0.07167466
5	0xbde80a6f	-0.11330115
6	0xbd3db765	-0.046317477
7	0x3c56174a	0.013067076
8	0x3d3cfa94	0.046137407
9	0x3a7cbb51	0.00096409494
10	0xbb42a0bc	-0.0029697856
11	0x3be79df6	0.007068391
12	0x3d9f9edc	0.07793972
13	0xba8d0c0f	-0.001076104
14	0x3daa11dc	0.08304188
15	0x3de83952	0.11339058
16	0xbd26641e	-0.040622823
17	0x3d4c45f8	0.049871415
18	0x3d8ec7ff	0.0697174
19	0xbc81ddd4	-0.015852846
20	0xbd5c2bd3	-0.05375273
21	0xbb0b3e03	-0.0021246679
22	0xbdde0910	-0.10841572
23	0xbdd2ad02	-0.10286905
24	0x3d0cd848	0.03438595
25	0x3d4574bd	0.048207033
26	0xbdb84040	-0.0899663
27	0x3db708e1	0.089372404
28	0xbe1bd8d4	-0.15219432
29	0xbc0fd581	-0.008778931
30	0x3cb95519	0.022623586
31	0xbdcd7244	-0.1003156
32	0xbd132194	-0.035920694
33	0x39a04fac	0.00030576938
34	0x3c063b91	0.008192913
35	0xbd855ed7	-0.0651223
36	0x3e003321	0.12519504
37	0xbd912b60	-0.07088351
38	0xbd6ef2e3	-0.058337104
39	0xbd808053	-0.06274476
40	0xbd6ab07e	-0.057297222
41	0xbde8f252	-0.11374344
42	0xbd80b7fc	-0.06285092
43	0x3d43cb81	0.0478015
44	0x3d7f4916	0.06232556
45	0x3da778c1	0.08177329
46	0xbdbb669a	-0.09150429
47	0xbc8b9c4d	-0.017042303
48	0xbdb2837b	-0.08716484
49	0xbc91c04a	-0.017791886
50	0xbc98b0b8	-0.018638954
51	0xbe00614c	-0.12537116
52	0x3d146c0e	0.03623586
53	0x3c64147f	0.013920902
54	0x3ce678f8	0.028133854
55	0x3d0f0aa9	0.034922276
56	0xbdcd1ab7	-0.10014861
57	0x3c808cbb	0.015692106
58	0x3dc9bbc0	0.098502636
59	0xbb4a6378	-0.0030882042
60	0x3ab42d62	0.0013746435
61	0x3ddd0b04	0.10793117
62	0x3cf65c4f	0.030073313
63	0x3d975755	0.07389704
64	0x3cf59792	0.0299795
65	0x3df968ea	0.12178214
66	0x3dc500ba	0.09619279
67	0xbdb1529c	-0.086583346
68	0xbc96b69d	-0.018397624
69	0xbc913aa5	-0.01772816
70	0xbd898e00	-0.067165375
71	0xbc7b9869	-0.015356162
72	0xbcabc7ce	-0.020969298
73	0xbc80b169	-0.015709596
74	0x3d55cd4e	0.052197747
75	0xbc9e8b28	-0.019353464
76	0xbd3e77aa	-0.04650084
77	0xbdf49222	-0.11941935
78	0xbda7007d	-0.0815439
79	0xbe062f55	-0.13103993
80	0xbdb6b117	-0.08920496
81	0xbdaa75c7	-0.083232455
82	0x3d53c6b8	0.051703185
83	0xbd8672a1	-0.065648325
84	0xbdfe63c0	-0.124213696
85	0xba459d58	-0.00075383997
86	0xbb3d4c74	-0.002888468
87	0x3d987baf	0.07445466
88	0x3d62bd50	0.055356324
89	0x3c885357	0.016641302
90	0x3c9b0186	0.018921625
91	0xbd3aeb06	-0.045634292
92	0xbbcd3e66	-0.006263542
93	0xbcde5f5e	-0.027145084
94	0x3b0bebc5	0.0021350246
95	0xbe10beaa	-0.14135233
96	0xbe0ae030	-0.13562083
97	0xbd18bd4f	-0.037289914
98	0xbd8b6b60	-0.068075895
99	0xbdda59d2	-0.10661663
100	0x3c5070db	0.012722219
101	0xbaceea6c	-0.0015786416
102	0x39592b87	0.00020710948
103	0x3d74f497	0.05980357
104	0xbbd0c53f	-0.00637117
105	0xbb3cd656	-0.0028814278
106	0xbd81b02d	-0.06332431
107	0x3cc8240d	0.024431253
108	0x3d6ac429	0.05731598
109	0x3d64d3a2	0.05586589
110	0x3e1f0439	0.15528955
111	0xbd7dd916	-0.061974607
112	0xbde07133	-0.10959091
113	0xbd909075	-0.07058803
114	0x3d2f9079	0.04286239
115	0xba468d83	-0.00075741875
116	0xbc9add68	-0.018904403
117	0xbc562805	-0.013071065
118	0x3e1754ff	0.14778517
119	0x3e053254	0.1300748
120	0xbcd3ffab	-0.025878748
121	0xbcf33723	-0.029689377
122	0xbc8a9624	-0.016917296
123	0xbdcae8fe	-0.09907721
124	0x3cefa2cb	0.02925243
125	0x3c9a8156	0.0188605
126	0xbd5cfa1d	-0.053949464
127	0xbd088002	-0.033325203
128	0x3d3036dd	0.04302107
129	0xbde96cb7	-0.11397689
130	0x3cd12048	0.025528088
131	0xbdb79d72	-0.08965577
132	0x3ccd06b6	0.025027614
133	0x3d9249b4	0.07142964
134	0xbd887f4f	-0.06664907
135	0xbd56110e	-0.05226236
136	0x3d4923d9	0.049106453
137	0xbd8f0432	-0.06983222
138	0x3d82c3ce	0.06385003
139	0x3e180279	0.14844693
140	0xbdd26abc	-0.10274264
141	0xbc39db38	-0.01134377
142	0xbc80283d	-0.015644187
143	0xbdf609d3	-0.120135926
144	0xbe0bac9b	-0.13640063
145	0xbd889bd8	-0.0667035
146	0xbdb13a67	-0.086537175
147	0xbde05502	-0.10953714
148	0x3aa1690e	0.0012314634
149	0x3cecbd76	0.028898936
150	0xbc26a9b1	-0.0101722935
151	0x3cdc4e5a	0.02689283
152	0xbda69b92	-0.081351414
153	0xbd4e7fe1	-0.050414924
154	0x3d1c7eb7	0.038206782
155	0x3cf8d159	0.030373262
156	0xbc0b84b8	-0.008515529
157	0xbe0e52e1	-0.13898803
158	0x3e3aa203	0.18225865
159	0x3d8a02b7	0.06738799
160	0x3d04c849	0.03241757
161	0x3da28184	0.079348594
162	0x3c96fcfe	0.018431183
163	0x3d323c54	0.043514565
164	0x3ce0ebcc	0.027456187
165	0xbd0a5e34	-0.033781245
166	0xbda41101	-0.08011056
167	0xbc013396	-0.007885834
168	0xbc17d120	-0.009266168
169	0x3db5ddcc	0.08880195
170	0x3b7e7ead	0.003883283
171	0x3d851a74	0.06499186
172	0x3d9e340b	0.0772477
173	0xbce9bb20	-0.028531611
174	0x3d2b2bae	0.041789703
175	0x3e02fc3c	0.12791532
176	0xbd7c04a9	-0.06152788
177	0x3d693446	0.056934617
178	0xbdf5ee7f	-0.1200838
179	0x3d7b5b81	0.06136656
180	0x3d501b7f	0.050807472
181	0xbc93720a	-0.017998714
182	0xbac4e4f1	-0.0015021843
183	0xbd92296a	-0.07136805
184	0x3d8220ea	0.06353934
185	0x3c460844	0.012086932
186	0x3aa123a6	0.0012293949
187	0x3cdae648	0.026721135
188	0x3dc1448d	0.09436903
189	0x3c9aa064	0.018875308
190	0x3ca84ec6	0.020545375
191	0xbd1f6b7c	-0.038920864
192	0xbd8130ba	-0.06308122
193	0xbbe527e9	-0.006993283
194	0xbd047e9f	-0.032347318
195	0xbca97071	-0.020683499
196	0xbd19f7b3	-0.03758974
197	0x3cc4e2a0	0.024033844
198	0xbc1e6d64	-0.009669635
199	0x3dcd11a6	0.10013132
200	0xbdc006a3	-0.09376266
201	0xb85c81e0	-5.2573043e-05
202	0x3e2469ad	0.16055937
203	0xbd55fb78	-0.052241772
204	0x3c1cb69e	0.009565024
205	0x3dc4a49a	0.09601708
206	0xb9d608ed	-0.0004082391
207	0xbe03ec0d	-0.12883015
208	0xbd71c469	-0.059025202
209	0xbc11dd59	-0.008902871
210	0xba5a7396	-0.00083332637
211	0xbe0f5183	-0.13995938
212	0x3c9e7dfe	0.019347187
213	0xbcd9d0b1	-0.02658877
214	0xbe218d77	-0.15776621
215	0xbc39e193	-0.011345285
216	0xbd4efbad	-0.050532985
217	0x3d8141e2	0.06311394
218	0x3deb8c14	0.11501327
219	0x3bfb2991	0.007664867
220	0x3c22bacc	0.009932231
221	0x3d0f4261	0.034975413
222	0xbcf74880	-0.030185938
223	0xbdc6fbcc	-0.09715995
224	0x3d60ec60	0.054912925
225	0x3d8a8719	0.06764049
226	0xbe0d844f	-0.13820003
227	0xbdc7aee9	-0.09750158
228	0xbd859775	-0.06523029
229	0xb94f4619	-0.00019767172
230	0x3c7a14a0	0.015263706
231	0x3d1bc08d	0.038025428
232	0x3d790334	0.06079407
233	0xbcc6a43d	-0.024248237
234	0x3deab62b	0.11460527
235	0x3d0feead	0.03513973
236	0xbc528405	-0.012848859
237	0x3e09d6f5	0.13460906
238	0x3d95925a	0.07303305
239	0x3d947227	0.07248335
240	0xbdf6b371	-0.120459445
241	0xbe02174c	-0.127042
242	0xbcccd4aa	-0.02500375
243	0x3d2cf8e8	0.042229563
244	0x3cac998d	0.021069312
245	0xbb4c5e95	-0.0031184305
246	0xbd217df6	-0.039426766
247	0xbbaa2121	-0.0051919376
248	0x3cd10a68	0.025517657
249	0xbcca4052	-0.024688873
250	0xbd35db2a	-0.044398464
251	0xbcdd0770	-0.026981086
252	0x3d7c4e6b	0.061598223
253	0x3db1b257	0.08676594
254	0x3d952157	0.0728175
255	0xbdfc9041	-0.12332202

4.bias f4 [128]
0	0x3b16d95d	0.0023017742
1	0xbcfee260	-0.031113803
2	0xbd64ecf3	-0.055890035
3	0xbd87b9e2	-0.06627251
4	0xbd29e095	-0.041473944
5	0x3c8672c9	0.016412156
6	0xbd8bab42	-0.06819774
7	0xbdd09d54	-0.10186258
8	0xbcaaec30	-0.020864576
9	0xbcaf8882	-0.021427397
10	0x3c6fe7c2	0.014642658
11	0xbd4607af	-0.04834717
12	0xbc5d43c2	-0.013504924
13	0xbc62c990	-0.013842002
14	0x3c2fc3fd	0.01072788
15	0xbb3bc842	-0.0028653299
16	0x3c0e575c	0.00868782
17	0xbe2aac0e	-0.16667196
18	0x3cf332c3	0.029687291
19	0x3b9b2638	0.0047347806
20	0xbcb303e1	-0.021852436
21	0xbd4869c5	-0.048928995
22	0xbd8123b9	-0.06305642
23	0xbdbf6767	-0.09345894
24	0x3cc643ef	0.024202315
25	0xbc9fc586	-0.019503366
26	0xbd1ed306	-0.038775466
27	0xbca1c5bd	-0.01974761
28	0xbcab7d9e	-0.020933922
29	0xbd2a8389	-0.041629348
30	0xbcb5bf3d	-0.022185916
31	0x3d504da2	0.050855286
32	0xbda2eae4	-0.07954958
33	0xbd1c8067	-0.03820839
34	0xbca61602	-0.020274166
35	0xbb9464ba	-0.004528609
36	0xbd36e108	-0.0446482
37	0xbd6e796b	-0.058221262
38	0xbb9f01e1	-0.004852519
39	0xbdaa6c5c	-0.08321449
40	0xbd87fab9	-0.066396184
41	0xbc875a8d	-0.01652267
42	0xbd1ad228	-0.037798077
43	0xbd5f6dfb	-0.054548245
44	0xbc30bd3e	-0.010787306
45	0x398a7a81	0.00026412684
46	0xbd642ae3	-0.055704962
47	0xbd5c0484	-0.053715244
48	0xbcd0cc00	-0.0254879
49	0xbd432531	-0.04764289
50	0xbd904588	-0.07044512
51	0xbdb37061	-0.08761669
52	0xbd859dab	-0.065242134
53	0xbcca3908	-0.024685398
54	0xbd20761c	-0.039175138
55	0xbd09dee2	-0.033659823
56	0x3d039305	0.03212263
57	0xbd9faf42	-0.077971
58	0xbd1b6c92	-0.037945338
59	0x3bc0a40c	0.005878931
60	0xbd30189e	-0.042992227
61	0xbc9309e9	-0.017949061
62	0x3ce27442	0.027643327
63	0xbd837d1a	-0.064203456
64	0xbd08117d	-0.033219803
65	0xbd2bd653	-0.041952442
66	0xbd84346e	-0.06455313
67	0xbdb9004f	-0.09033262
68	0xbd889c68	-0.06670457
69	0xbd1c2bb1	-0.038127605
70	0xbd053b58	-0.032527298
71	0xbddd86ce	-0.108167276
72	0xbd8c5e42	-0.06853916
73	0xbca20563	-0.01977796
74	0xbcaa1bd0	-0.020765215
75	0xbc01fbb7	-0.007933549
76	0x3d45e826	0.048317097
77	0xbda52d60	-0.08065295
78	0xbc0e6c9d	-0.008692888
79	0x3d160610	0.036626875
80	0xbc0f1bd0	-0.008734658
81	0xbd22973d	-0.039695013
82	0xbda156a9	-0.07877857
83	0xbd0fad6c	-0.035077497
84	0xbd06030b	-0.032717746
85	0x3d2c1075	0.042007882
86	0xbd2098a5	-0.039208073
87	0xbda7adb2	-0.081874266
88	0xbcbd32ba	-0.023095477
89	0xbdce2b45	-0.10066847
90	0xbba48488	-0.005020682
91	0xbd2e7ea1	-0.04260123
92	0xbcbd5341	-0.023110988
93	0xbd3694b0	-0.044575393
94	0x3b699251	0.003564019
95	0xbdf3db4d	-0.11907063
96	0xbcb5c84a	-0.022190232
97	0xbddee567	-0.10883599
98	0xbcde29c1	-0.02711952
99	0x3bc6fb57	0.0060724425
100	0xbcc88f7d	-0.024482483
101	0xbd9a21ef	-0.075260036
102	0xbe25c7f1	-0.16189553
103	0xbd7050c3	-0.05867077
104	0x3b062928	0.0020471308
105	0x3c462ca7	0.012095607
106	0xbd74d8f5	-0.05977722
107	0xbcc24a71	-0.023717137
108	0xbdac8eb5	-0.08425657
109	0xbd80a859	-0.0628211
110	0x3a4da46f	0.0007844632
111	0xbd334804	-0.04376985
112	0xbd8f4f57	-0.06997555
113	0xbb6bddee	-0.0035990435
114	0xbd61bb76	-0.055110417
115	0x3d0378cc	0.032097623
116	0xbb559e69	-0.003259564
117	0xbd3709b6	-0.044686995
118	0xbd2f58a9	-0.042809162
119	0xbc7929a3	-0.015207681
120	0xbbcac3ba	-0.006187883
121	0x3c4fa4a3	0.01267353
122	0xbcf4fbb3	-0.029905176
123	0x3d748acc	0.05970268
124	0xbdfcfaf6	-0.123525545
125	0xbd8339c6	-0.06407504
126	0xbcb7eecd	-0.022452736
127	0x3a8da137	0.0010805492

6.weight f4 [12, 128]
0	0xbb4bf97d	-0.0031124048
1	0xbb60513f	-0.0034228114
2	0x3d5adc9a	0.05343304
3	0xbc9a7498	-0.018854424
4	0xbcc80e26	-0.024420809
5	0x3cecb82e	0.028896417
6	0x3cac5c8b	0.021040222
7	0xbc021a47	-0.007940835
8	0x39c94b62	0.00038393872
9	0x3ca02b50	0.019551903
10	0x3d05f502	0.03270436
11	0x3c9bec39	0.019033538
12	0xbbc091e6	-0.0058767674
13	0x3d054aaf	0.032541927
14	0xbd01015a	-0.03149543
15	0xbc0bba9c	-0.008528378
16	0xbca1375d	-0.01967972
17	0x3d8bf549	0.06833894
18	0xbc6fb5d3	-0.014630753
19	0xbc249e94	-0.010047574
20	0xbc4703b6	-0.012146881
21	0xbc661a77	-0.014044396
22	0x3bec7149	0.007215653
23	0x3cb080bd	0.021545762
24	0x3d3cd708	0.046103507
25	0xbcb7c90e	-0.022434738
26	0x3c564321	0.013077528
27	0x3cf997f0	0.030467957
28	0xbbfe9871	-0.0077696373
29	0x3d048950	0.032357514
30	0xbcc1124e	-0.023568299
31	0xbd66ff0f	-0.056395587
32	0x3cb462bb	0.022019735
33	0x3d143b82	0.036189564
34	0x3a877f6f	0.0010337661
35	0xbd4dc039	-0.050232146
36	0x3d134a80	0.03595972
37	0x3d40b425	0.0470468
38	0x3b548f2b	0.0032433968
39	0xbc9146c8	-0.017733946
40	0xbc88d969	-0.016705232
41	0x3b6e1d5d	0.003633342
42	0xbc97632e	-0.01847991
43	0x3c425e01	0.011863233
44	0xbd12a7c3	-0.03580452
45	0xbbcf63fb	-0.0063290573
46	0x3c328809	0.010896691
47	0x3b84d7cc	0.0040540453
48	0x3d2e504f	0.042557057
49	0xbc6f8741	-0.014619649
50	0x3ca72132	0.020401571
51	0x3b991d9c	0.004672719
52	0xbcb7d87c	-0.022442095
53	0xba954cc2	-0.0011390673
54	0xbb60557f	-0.0034230647
55	0xbb563bf3	-0.003268954
56	0x3c84bac9	0.016202347
57	0xbc0a40d1	-0.008438305
58	0x3c28775f	0.010282367
59	0xbda60ba0	-0.08107686
60	0x3cbe8a03	0.023259168
61	0x3c20a711	0.009805457
62	0xbd7428c2	-0.059609182
63	0x3d472aa1	0.04862464
64	0xbc8472f3	-0.016168093
65	0x3c5aacae	0.013346834
66	0x3c4b74fd	0.012418029
67	0xbc8fcf5b	-0.01755493
68	0x3cb5c118	0.0221868
69	0xba553d2b	-0.000813442
70	0x3d49a696	0.049231134
71	0xbbf8f52a	-0.007597585
72	0x3c2102be	0.009827314
73	0xbc0566d2	-0.00814219
74	0x3a15afc1	0.00057100883
75	0xbd4138c9	-0.047173295
76	0xbd0dcc9e	-0.034618966
77	0x3cb9502a	0.022621233
78	0x3d1e6dbf	0.03867888
79	0xbb91fcbd	-0.0044551776
80	0x3c80ec1c	0.015737586
81	0x3bb466eb	0.005505433
82	0xbb4edb32	-0.0031563756
83	0xbcc5afc0	-0.024131656
84	0xbc3c23c2	-0.011483135
85	0xbc55da95	-0.013052602
86	0xbbc62d4e	-0.006047881
87	0x3d408a81	0.047007088
88	0xbd48f906	-0.049065612
89	0x3b5966a2	0.0033172746
90	0x3d70367a	0.058645703
91	0xbd6249f6	-0.055246316
92	0x3c2641e9	0.01014755
93	0x3b90c000	0.0044174194
94	0xbb2f0dc3	-0.0026711083
95	0x3c23e2e6	0.010002827
96	0xbb3ac8f9	-0.0028501137
97	0x3aeaca22	0.0017913023
98	0xbd07323d	-0.033006895
99	0xbbd11dec	-0.006381741
100	0x39a694a5	0.00031772736
101	0x3ce0af25	0.027427265
102	0x3cae349f	0.021265326
103	0x3ba8d5a9	0.0051524234
104	0xbc5a64b0	-0.01332967
105	0xbbd9b155	-0.006643454
106	0x3d25cdbd	0.04047941
107	0xbc0af2e6	-0.008480763
108	0x3c805b71	0.015668603
109	0xbc8c8210	-0.017151862
110	0xbabb254a	-0.0014278081
111	0x3cf3b91e	0.029751357
112	0x3cbbf2e9	0.022942977
113	0xbd8de876	-0.06929104
114	0xba83846e	-0.0010033974
115	0xbd01f203	-0.03172494
116	0xbc0a90df	-0.0084573915
117	0xbcbe8085	-0.023254642
118	0x3bb266e9	0.0054443968
119	0x3d617703	0.05504514
120	0x3cb441ec	0.02200409
121	0xba13192a	-0.0005611355
122	0x3b20bc87	0.0024526434
123	0xbd0afa0c	-0.03392987
124	0x3b95d071	0.0045719673
125	0x3c44953a	0.011998469
126	0x3d209b43	0.03921057
127	0xbd1107d1	-0.035407845
128	0xbc9db66c	-0.019252025
129	0xbd57236e	-0.052524023
130	0xba8e0c0d	-0.0010837332
131	0x3cdea990	0.027180463
132	0xbc807b51	-0.015683802
133	0x3c45382b	0.012037317
134	0x3c40d92d	0.011770529
135	0x3d985570	0.07438171
136	0x3a055b6a	0.0005087169
137	0xbba7725c	-0.0051100682
138	0x3b8528bd	0.0040636943
139	0x3ca32556	0.019915264
140	0x3d67dc58	0.05660662
141	0xbbd433e7	-0.006475914
142	0x3b9d6aa1	0.004803971
143	0x3b74d103	0.0037356026
144	0xbd89167a	-0.0669374
145	0x3777c5ba	1.4768384e-05
146	0x3d3603fd	0.044437397
147	0x3a8b27f4	0.0010616765
148	0x3b3d61dc	0.002889744
149	0xbb9e7e94	-0.0048368666
150	0x3cc16794	0.02360896
151	0xbc29739a	-0.010342503
152	0x3c998ee4	0.018744893
153	0xbce7ee4e	-0.028311875
154	0x3d296953	0.04136021
155	0xbb770137	-0.0037689933
156	0x3d33d013	0.043899607
157	0xbcbce38d	-0.023057723
158	0x3bc0371b	0.005865944
159	0xbb7d186c	-0.0038619293
160	0xbc162bad	-0.009165687
161	0x3d116bf1	0.03550333
162	0xbcd623e3	-0.026140159
163	0xbb32e6a7	-0.0027298124
164	0xbd5698af	-0.052391704
165	0xba9c9280	-0.0011945516
166	0x3c3cd109	0.011524447
167	0xbb7e9166	-0.0038843988
168	0x3cd4cb65	0.025975892
169	0x3ce3d166	0.02780981
170	0x3b992164	0.00467317
171	0x3c9581ae	0.018250313
172	0xbd5b9983	-0.053613197
173	0x3c8553fc	0.016275398
174	0xbc7cc3c5	-0.0154275345
175	0xbc15a828	-0.00913433
176	0xbd2e78ff	-0.04259586
177	0x3bbc457a	0.005745587
178	0x3bf8b784	0.007590236
179	0x3c395be6	0.011313414
180	0xbc3a2deb	-0.011363487
181	0xbb6e3bad	-0.0036351488
182	0x3c5c7e84	0.013457898
183	0x3c4b70fc	0.012417074
184	0xbcbba8db	-0.022907665
185	0x3c4846a4	0.012223873
186	0xbc10b773	-0.0088328
187	0x3d35fe25	0.044431824
188	0xbbcf3a8c	-0.006324118
189	0xbc4673ec	-0.012112599
190	0xbd8955df	-0.06705832
191	0x3c572eec	0.013133746
192	0xbcf2fe00	-0.029662132
193	0x3bcd181f	0.006258979
194	0x3b83585e	0.004008337
195	0xbc74629c	-0.014916088
196	0xbd3c61c9	-0.045991693
197	0x3c623cf2	0.013808476
198	0xbd088691	-0.033331458
199	0x3b286338	0.0025693905
200	0xbd32a271	-0.043611947
201	0x3cf73a09	0.03017904
202	0x3d0287df	0.031867858
203	0xbcc5707f	-0.024101494
204	0x3ddb4e63	0.107083105
205	0xbb9fdf01	-0.004878879
206	0x3c8e42bb	0.017365804
207	0xbb670c77	-0.0035255232
208	0xbc82b3d5	-0.015954891
209	0xbcaf19d8	-0.021374628
210	0xbccc4889	-0.024936931
211	0xbcbda8e8	-0.02315183
212	0xbbe5690b	-0.0070010475
213	0x3a36dfeb	0.00069761154
214	0x3b335ed4	0.0027369754
215	0xbc2c75c7	-0.010526127
216	0xbb6900f9	-0.0035553558
217	0xbd51448b	-0.05109076
218	0x3cffdc2f	0.031232921
219	0xbd7178f3	-0.058953237
220	0xbd07b4fc	-0.033131585
221	0x3b0aee5a	0.0021199198
222	0xbc8fb3e7	-0.017541839
223	0x3ddf539d	0.1090462
224	0x3c554b58	0.013018452
225	0xbe002e42	-0.12517646
226	0xbc2d8091	-0.010589735
227	0x3b85a359	0.0040783104
228	0x3c5113c9	0.012761065
229	0xbcffa7f3	-0.031208014
230	0x3bfe66a2	0.0077636996
231	0xbd96b8d2	-0.073594704
232	0xb92b1fd4	-0.00016319688
233	0xbcd6112d	-0.026131237
234	0xbc1f4b20	-0.009722501
235	0xbbf8a6bb	-0.007588235
236	0xbcadcf7e	-0.021217104
237	0xba8bfa4c	-0.0010679453
238	0xbbef1046	-0.007295641
239	0x3d304c50	0.043041527
240	0xbd29cf21	-0.0414573
241	0x3c17b1dc	0.009258714
242	0x3bd72449	0.006565605
243	0xbd3fed74	-0.046857312
244	0xbc15f075	-0.009151568
245	0xbd4755c4	-0.048665777
246	0x3b38b2c1	0.0028182718
247	0x3d4ebfe7	0.05047598
248	0xbcfb2d9c	-0.030661397
249	0x3bcffb74	0.006347114
250	0xbd3601eb	-0.044435423
251	0x3d64b9f6	0.05584141
252	0xbce78520	-0.028261721
253	0xbc437d29	-0.011931696
254	0xbc980604	-0.018557556
255	0xbc4267d2	-0.011865573

6.bias f4 [12]
0	0xba94a268	-0.0011339905
1	0x3d8222e4	0.06354311
2	0x3c195f66	0.009361124
3	0x3d4e375a	0.050345756
4	0xbb414901	-0.0029492977
5	0xbd3cada3	-0.04606403
6	0xbd498186	-0.04919579
7	0xbd8bee15	-0.0683252
8	0x3cea54e5	0.028604934
9	0x3d203596	0.039113604
10	0x3d2d3ce1	0.042294387
11	0xbd5637e6	-0.052299403
